new_version/liveness_model.tflite (tflite, 599228 bytes, 20 tensors)

arith.constant f4 [32]
0	0x3b955245	0.0045569264
1	0x38d95c67	0.000103645776
2	0x38f240c5	0.000115515235
3	0x3b588183	0.003303618
4	0xba6eccba	-0.0009109486
5	0xbb5d420b	-0.0033761289
6	0x3a451397	0.0007517873
7	0xbb0bc903	-0.002132953
8	0x3b878ab5	0.004136408
9	0x3aa25b80	0.0012386888
10	0x3b7936df	0.003802709
11	0x3b73a46f	0.0037176867
12	0xbadcc00c	-0.0016841902
13	0x3b1724d9	0.0023062734
14	0x3a6632a6	0.0008781351
15	0x3a4cdf14	0.00078152237
16	0xb90a46ae	-0.00013187036
17	0x3b3b8726	0.002861449
18	0x3ba5e144	0.005062254
19	0xba6764b5	-0.0008826957
20	0xbb0839fc	-0.0020786515
21	0x385d298b	5.2729196e-05
22	0x3b03ede3	0.0020130805
23	0x39ad059c	0.0003300131
24	0xbb331d2e	-0.0027330625
25	0x3a9e7738	0.0012089973
26	0x3b7b3045	0.0038328331
27	0xbc039705	-0.008031611
28	0x3af7f329	0.0018917072
29	0xba11db96	-0.0005564032
30	0xbc077141	-0.008266748
31	0x3955a78a	0.00020375676

arith.constant1 f4 [32]
0	0xbb242e42	-0.0025051986
1	0x3b949c24	0.004535215
2	0xba97ae73	-0.0011572376
3	0x3b3bc44b	0.0028650935
4	0xba131653	-0.00056109315
5	0x3ab526ba	0.0013820746
6	0xbb2178b3	-0.0024638593
7	0x3a6f106a	0.00091195724
8	0x3bf56d03	0.007489802
9	0xbba47c68	-0.005019713
10	0xbb5e01ca	-0.0033875578
11	0xb9ecdc25	-0.00045177448
12	0xbb0730bc	-0.0020628413
13	0xba88fe08	-0.0010451684
14	0x3b138558	0.00225099
15	0xbb9ac667	-0.0047233584
16	0x39097b5e	0.00013111296
17	0xbae3b135	-0.0017371537
18	0xbaed12e4	-0.0018087295
19	0xbb678a17	-0.003533011
20	0xbbcb397e	-0.006201922
21	0x3b4598f6	0.0030150986
22	0x3abd8426	0.0014458939
23	0x3abe1d4a	0.0014504578
24	0xb9812780	-0.00024634227
25	0x3b21189c	0.0024581319
26	0xbaff45ec	-0.0019475794
27	0x3a65e830	0.00087702554
28	0x3adcfd34	0.0016860128
29	0x3b1263cf	0.0022337323
30	0xbb33f33a	-0.0027458207
31	0xb98710c9	-0.00025761712

arith.constant2 f4 [16]
0	0xb7a88312	-2.0088195e-05
1	0xba473a7d	-0.0007599963
2	0xbb3205ba	-0.0027164058
3	0x3b3aa92c	0.0028482182
4	0x3b25e94e	0.0025316062
5	0x3bd4f51b	0.0064989454
6	0x3c081499	0.008305692
7	0xb99ce8fd	-0.00029928228
8	0xbaaaead9	-0.0013039961
9	0xbaa74ea2	-0.0012764523
10	0x3bc63352	0.0060485983
11	0x3b132a08	0.0022455472
12	0x39d78a11	0.00041110863
13	0x3b0e06cd	0.0021671534
14	0xbb62b050	-0.0034589954
15	0xbae54846	-0.0017492853

arith.constant3 f4 [2, 64]
0	0x3e61b0ff	0.22040175
1	0x3e4ca4c2	0.19984725
2	0x3e214cc2	0.15751937
3	0xbdec7f66	-0.11547737
4	0x3e001382	0.12507442
5	0xbe1124a2	-0.1417413
6	0xbd2cb7fc	-0.04216765
7	0xbdf23b6a	-0.118277386
8	0x3e3d3204	0.1847611
9	0xbd333bbb	-0.043758135
10	0x3d185a44	0.03719546
11	0xbe3dc7a7	-0.18533193
12	0xbd835d0b	-0.06414231
13	0xbdc766bf	-0.09736394
14	0xbe1e8091	-0.15478732
15	0x403885c8	2.8831654
16	0xbdeb1ed7	-0.114804916
17	0xbe3837ca	-0.17990032
18	0x3eba139a	0.3634308
19	0xbbc2dc68	-0.0059466846
20	0xbd383039	-0.044967864
21	0xbf694ce3	-0.91132945
22	0xbdef68e0	-0.11689925
23	0xbe3c0562	-0.18361428
24	0xbc829a2a	-0.015942652
25	0xbda2fe47	-0.07958656
26	0xbd25db6b	-0.040492456
27	0xbddc1760	-0.10746646
28	0x3fd8d64d	1.69404
29	0x3e78acca	0.24284664
30	0x3b89f94a	0.004210626
31	0x3d9c67d1	0.07636989
32	0xbdbe27d6	-0.09284942
33	0xbd5843bb	-0.052798968
34	0x3e3cc6db	0.18435232
35	0x3e86e07d	0.26343146
36	0xbdf4e74c	-0.11958179
37	0x3f1ab0c5	0.6042598
38	0x3d400833	0.04688282
39	0xbadf649b	-0.0017043533
40	0x3dbebec2	0.09313728
41	0x3f894f8d	1.0727402
42	0x3b6590d2	0.0035028947
43	0xbd815f78	-0.06317037
44	0x3d6e58d8	0.058190197
45	0xbd8e4265	-0.069462575
46	0xbdf7b144	-0.120943576
47	0xbd895c53	-0.067070626
48	0xbdc0a186	-0.09405808
49	0x3de5f512	0.11228384
50	0xbc7860f9	-0.015159839
51	0xbd745e9d	-0.059660543
52	0x3d26e894	0.040749148
53	0xbe1c962c	-0.15291661
54	0xbf262bf9	-0.64910847
55	0x3dc05fb8	0.09393257
56	0x3deb1d09	0.114801474
57	0xbe21ccc8	-0.15800774
58	0xbe1bc788	-0.15212834
59	0x3e2f6160	0.1712699
60	0xbdcc1de6	-0.0996664
61	0x3d7c0ad3	0.06153376
62	0x3e962d11	0.29331258
63	0x3e26915d	0.16266389
64	0xbe83bded	-0.2573084
65	0xbea828a3	-0.32843503
66	0xbe15930a	-0.14606872
67	0xbc298010	-0.010345474
68	0x3dbb8797	0.09156721
69	0xbd20cf34	-0.039260104
70	0xbe41614d	-0.18884774
71	0xbcba76a8	-0.022761658
72	0xbd0aa1c2	-0.03384567
73	0xbefd9d37	-0.49534008
74	0x3c989ad6	0.018628519
75	0xbe420589	-0.18947424
76	0xbe19ffbd	-0.15038963
77	0xbe045a03	-0.12924962
78	0xbba0b5af	-0.004904471
79	0x3f04da4b	0.5189559
80	0x3d0a20ba	0.033722617
81	0x3cbbabc1	0.022909047
82	0xbea9d2b4	-0.33168566
83	0x3ce64ff5	0.028114298
84	0xbd0272df	-0.03184783
85	0xbf3d6275	-0.7397836
86	0x3dd02c70	0.10164726
87	0xbe41b544	-0.18916804
88	0xbcb13433	-0.021631336
89	0xbca6aeab	-0.02034696
90	0xbe045aec	-0.12925309
91	0x3def8585	0.11695389
92	0x3da7c1c5	0.081912555
93	0xbe2e6a30	-0.17032695
94	0x3df5bbba	0.119986966
95	0x3d984430	0.07434881
96	0xbd165910	-0.03670603
97	0x3dd8ee4c	0.105923265
98	0xbe4fa0f0	-0.20276237
99	0xbdc0d61c	-0.09415838
100	0x3d159d77	0.036527123
101	0x3f98b6ea	1.1930821
102	0x3de25020	0.11050439
103	0x3e39f776	0.18160805
104	0x3d7e0d3d	0.062024344
105	0xbf5accd3	-0.85468787
106	0xbe13032c	-0.14356679
107	0x3dfe6f83	0.12423613
108	0xbd5af63e	-0.05345749
109	0x3cb3e04d	0.02195754
110	0x3d54ad02	0.051922806
111	0x3dc7a0e1	0.09747482
112	0x3de66374	0.11249438
113	0x3d5b91eb	0.053605955
114	0xbcb3acfa	-0.021933068
115	0x3e9f6849	0.3113425
116	0xbdf4bf45	-0.11950544
117	0xbe2aa07b	-0.16662781
118	0xbf93a703	-1.1535343
119	0x3c448c71	0.011996374
120	0x3dac4c4d	0.08412991
121	0xbd2b2321	-0.04178155
122	0x3e7ade3d	0.2449884
123	0x3dd76991	0.10518182
124	0x3df81fc6	0.12115435
125	0xbe31e6a4	-0.17373139
126	0xbf137a69	-0.5760866
127	0x3e10c170	0.1413629

arith.constant4 f4 [2]
0	0x4089819d	4.297072
1	0xbff24a1c	-1.8928866

arith.constant5 f4 [32, 3, 3, 32]
0	0x3b829954	0.0039855633
1	0x3dafa72e	0.08576809
2	0x3c85aeed	0.016318763
3	0xbdb98422	-0.090584055
4	0x3db72f9e	0.08944629
5	0xbc89f904	-0.016842373
6	0x3d3a57df	0.045493957
7	0x3bffd508	0.0078073777
8	0xbcc0a753	-0.023517286
9	0x3d630214	0.055421904
10	0xbd08f49b	-0.0334364
11	0xbd01c5af	-0.031682666
12	0x3d83dc0c	0.06438455
13	0x3da8f100	0.08249092
14	0x3dc8ffc1	0.09814406
15	0xbd9bf50a	-0.07615097
16	0xbcbb618b	-0.02287366
17	0x3d96e156	0.07367198
18	0xbcb28366	-0.021791171
19	0x3da45ee1	0.08025909
20	0xbdc008ce	-0.09376679
21	0xbd8e7e1b	-0.069576465
22	0xbdcc82f1	-0.099859126
23	0xbcee0874	-0.029056765
24	0x3db5653f	0.08857202
25	0x39ffe951	0.00048811224
26	0x3d6e3a53	0.05816109
27	0xbc506188	-0.012718566
28	0xbd7d70e0	-0.061875224
29	0xbd5b476c	-0.05353491
30	0xbcc8780b	-0.024471303
31	0x3d9a5150	0.075350404
32	0xbb291437	-0.0025799403
33	0x3bd32470	0.0064435527
34	0xbd30821e	-0.04309284
35	0xbb4aeb9e	-0.0030963193
36	0x3dd361ea	0.1032141
37	0xbbb70606	-0.005585435
38	0xbab4c587	-0.0013791778
39	0xbdc5bf2e	-0.09655605
40	0xbdc8b367	-0.09799843
41	0x3d711e41	0.058866743
42	0xbca18763	-0.019717878
43	0xbce9a567	-0.028521253
44	0xbd316150	-0.043305695
45	0xbd0fce60	-0.035108924
46	0xbd84c074	-0.0648202
47	0xbd37ecec	-0.04490368
48	0xbd446c80	-0.047955036
49	0x3ca0c2c7	0.019624127
50	0xbd75ecc7	-0.06004026
51	0xbce678ba	-0.028133739
52	0xbcc5f225	-0.024163315
53	0xbd62365d	-0.055227626
54	0x3db972ce	0.090551004
55	0x3d1a7af3	0.03771491
56	0xbcd11657	-0.025523348
57	0x3d3130cf	0.043259438
58	0xbb96335f	-0.0045837606
59	0xb9e5e12f	-0.00043846059
60	0x3d9c1d58	0.076227844
61	0x3c0fe483	0.008782509
62	0x3d13b10c	0.036057517
63	0x3d9ff669	0.07810671
64	0x3d32b484	0.043629184
65	0x3ba13bbb	0.0049204505
66	0xbdafe0f2	-0.08587827
67	0xbd8413b5	-0.06449071
68	0x3cd38e84	0.025824793
69	0xbd7c7f68	-0.06164494
70	0xbd85229f	-0.06500744
71	0x3a852721	0.0010158756
72	0x3dc32850	0.095291734
73	0x3dbf41b4	0.09338704
74	0xbda505b7	-0.08057731
75	0xbdbdfda0	-0.09276891
76	0xbd7dc8c5	-0.061959047
77	0xbdb9c146	-0.09070067
78	0xbbea0ff6	-0.007143016
79	0x3d11c3f0	0.03558725
80	0x3a0aa5ac	0.0005288969
81	0x3da9b8e5	0.08287219
82	0xbcdac2e0	-0.026704252
83	0x3d5615d9	0.05226693
84	0xbd8a0b84	-0.06740478
85	0x3dcb98f3	0.09941282
86	0x3c22a054	0.0099259205
87	0xbdb0491f	-0.08607697
88	0x3b389c61	0.002816938
89	0xbda04305	-0.07825283
90	0xbc826a06	-0.015919697
91	0xbd61eaae	-0.05515545
92	0xbdb76d12	-0.089563504
93	0x3dd6660a	0.10468681
94	0xbc9d426e	-0.019196715
95	0xbdb10cc5	-0.08645014
96	0xbdb2f3d1	-0.087379105
97	0xbce7834a	-0.028260846
98	0x3da11482	0.0786524
99	0x3db98fde	0.090606436
100	0x3d4f5f1f	0.050627824
101	0xbda48237	-0.08032649
102	0xbcf6d764	-0.030132003
103	0x3d494f1e	0.049147718
104	0x3d80845f	0.06275248
105	0xbd91217c	-0.07086465
106	0xbbd7068d	-0.00656206
107	0x3c62ee1f	0.013850718
108	0x3d7cf265	0.061754603
109	0xbcd0287d	-0.025409931
110	0x3cd3d5d7	0.025858803
111	0x3b981198	0.004640769
112	0x3d7bdcb0	0.06148976
113	0xbdcaf9cf	-0.099109285
114	0xbc8616ca	-0.016368289
115	0x3dc2574f	0.09489309
116	0x3d9a6bb4	0.07540074
117	0x3d1be415	0.038059313
118	0x3cd088fb	0.025455942
119	0xbd3ace71	-0.045607034
120	0x3d771d5b	0.06033073
121	0x3d0eb66a	0.034841932
122	0x3d23ffa4	0.04003872
123	0x3dc11fe9	0.094299145
124	0xbd512e78	-0.051069707
125	0xbd444761	-0.047919635
126	0xbcf93493	-0.030420577
127	0x3d99aefa	0.07504077
128	0xbd8acb62	-0.067770734
129	0xbc8d6cc8	-0.017263785
130	0x3ce1f219	0.027581261
131	0x3da0523d	0.07828186
132	0xbc958c26	-0.018255305
133	0xbd1f599b	-0.038903814
134	0xbd157727	-0.036490586
135	0x3bbafadb	0.005706174
136	0xbcdfaa08	-0.027302757
137	0xbdb8376e	-0.089949474
138	0xbd27229c	-0.04080449
139	0x3d8bdab1	0.068288215
140	0xbdade5f3	-0.08491125
141	0x3d9bf2a8	0.076146424
142	0xbd1fc786	-0.03900864
143	0xbdb78a2e	-0.089619026
144	0xbb75eb1e	-0.0037524174
145	0x3dd56212	0.10419096
146	0xbdb690b7	-0.08914321
147	0xbd42a97d	-0.047524918
148	0xbd8dead0	-0.069295526
149	0x3d9f6769	0.07783396
150	0xbd673ab7	-0.05645248
151	0x3a893c10	0.001047017
152	0x3d51cb44	0.05121924
153	0x3d218589	0.03943399
154	0xbcab7b58	-0.020932838
155	0xbdc6a7fc	-0.09700009
156	0x3d9c808f	0.07641708
157	0xbd85e366	-0.065375134
158	0xbc016fb9	-0.007900172
159	0x3d11f1aa	0.03563086
160	0xbdb0b80b	-0.086288534
161	0xbdafea2f	-0.08589589
162	0x3caaeae8	0.020863965
163	0xbb604e44	-0.0034226337
164	0xbcea4000	-0.02859497
165	0xbdb7f65a	-0.08982535
166	0xbd0fb583	-0.035085212
167	0xbd96ca9e	-0.07362865
168	0x3d9797f6	0.07402031
169	0x3d814db8	0.06313652
170	0x3da1e887	0.07905679
171	0xbd09f03d	-0.033676375
172	0x3cf9f508	0.030512348
173	0xbc023bc6	-0.007948821
174	0xbd5be4f0	-0.05368513
175	0xbdc9e59a	-0.09858246
176	0xbd8228fb	-0.06355473
177	0x3dd4b289	0.103856154
178	0xbd97d4e2	-0.07413651
179	0x3c92ac2b	0.017904362
180	0xbca683af	-0.020326464
181	0xbda637db	-0.08116122
182	0x3db42ad5	0.08797232
183	0x3d0970a2	0.03355468
184	0xbd899252	-0.067173615
185	0x3d4f783b	0.05065177
186	0x3d793201	0.060838703
187	0x3da323d4	0.07965818
188	0xbc94e61a	-0.018176127
189	0xbd8de9ad	-0.06929336
190	0xbd47386c	-0.048637792
191	0xbc86163f	-0.01636803
192	0xbda1e9c3	-0.07905915
193	0xbc409715	-0.011754771
194	0xbc02dcc2	-0.007987203
195	0xbd617f90	-0.055053294
196	0xbccc4a71	-0.02493784
197	0xbdb9e2a8	-0.090764344
198	0xba7e045b	-0.000968998
199	0xbc89fca2	-0.016844098
200	0x3d71c4b2	0.059025474
201	0x394248f0	0.00018528453
202	0x3d00a5fc	0.031408295
203	0x3d2b8008	0.041870147
204	0x3d48d034	0.049026683
205	0x3cbc6ef0	0.023002118
206	0xbd2b0e25	-0.041761536
207	0xbc624d62	-0.013812395
208	0xbb9b8a39	-0.004746702
209	0x3db16b44	0.086630374
210	0xbda1bbc3	-0.07897141
211	0xbcc40747	-0.023929251
212	0xbd41a874	-0.04727979
213	0xbd0e70df	-0.03477561
214	0xbce1e266	-0.027573776
215	0xbd97815a	-0.07397719
216	0xbd5b2927	-0.053506043
217	0xbcd3b058	-0.025840923
218	0x3db8ddc5	0.09026674
219	0x3db5072c	0.088392586
220	0x3d0d7d7b	0.034543496
221	0xbd332be9	-0.043743048
222	0x3c064421	0.008194954
223	0x3d2d3c08	0.04229358
224	0x3d6feb06	0.058573745
225	0xbdc551ec	-0.09634766
226	0x3cd4e467	0.025987817
227	0x3dc3232b	0.09528192
228	0xbdbe5e98	-0.09295386
229	0xbd67ca27	-0.056589272
230	0xbd2076ad	-0.039175678
231	0xbdaeba51	-0.08531631
232	0xbdcb38f3	-0.099229716
233	0xbcf298fc	-0.029613964
234	0x3d6f6d03	0.05845357
235	0xbdb38214	-0.08765045
236	0x3dc8ff07	0.098142676
237	0x3d1210cc	0.03566055
238	0x3dac5afd	0.08415792
239	0xbd64a111	-0.055817667
240	0x3d1fb207	0.03898814
241	0xbba713e9	-0.005098809
242	0xb979175b	-0.00023755191
243	0xbd8a9fc4	-0.06768754
244	0xbd2cf66d	-0.042227197
245	0x3d2a8a51	0.041635815
246	0x3b8dbd06	0.004325512
247	0xbdb205d8	-0.08692521
248	0x3d223a64	0.039606467
249	0x3c55d7c7	0.013051934
250	0x3d313cf3	0.043271016
251	0x3d983ff0	0.0743407
252	0x3d96c909	0.07362563
253	0x3d619919	0.055077646
254	0x3d932356	0.07184474
255	0xbda21b2f	-0.07915341

arith.constant6 f4 [32, 3, 3, 16]
0	0xbdc81ce0	-0.097711325
1	0x3ce64432	0.02810869
2	0xbd56d28a	-0.05244688
3	0xbc0362d5	-0.008019169
4	0x3b36e9cc	0.002791035
5	0x3d9c1dbf	0.07622861
6	0x3dad6c99	0.08467979
7	0x3da77204	0.08176044
8	0x3d9c8260	0.076420546
9	0xbd0cae88	-0.034346133
10	0xbc5b5520	-0.013386995
11	0x3da84672	0.082165614
12	0x3debca68	0.11513215
13	0x3def732c	0.11691889
14	0xbb03301d	-0.0020017691
15	0xbd97bce9	-0.07409079
16	0x3dade3b6	0.08490698
17	0x3d7bbca6	0.061459206
18	0xbda9a2d5	-0.08283011
19	0x3d05bda8	0.032651573
20	0x3cf6d2da	0.030129839
21	0x3d911cb1	0.070855506
22	0xbdb45d0e	-0.08806811
23	0x3bbe65d6	0.0058104796
24	0xbd0012f7	-0.031268086
25	0xbd8f2fce	-0.0699154
26	0xbd09388a	-0.033501185
27	0x3dabd6a8	0.08390552
28	0xbdab4939	-0.083635755
29	0x3cdcb662	0.026942436
30	0xbd8d92ba	-0.069127515
31	0x3a14abfc	0.00056713796
32	0xbcc6d5d8	-0.02427189
33	0xbcd39247	-0.025826586
34	0x3d067a44	0.032831445
35	0xbdd508b8	-0.104020536
36	0xbd6c393c	-0.05767177
37	0x3d800b1a	0.062521175
38	0x3d208f7e	0.039199345
39	0x3ce43706	0.027858268
40	0xbc779866	-0.015112018
41	0xbbb0e83e	-0.005398779
42	0xbdb72c24	-0.08943966
43	0x3ce22387	0.027604831
44	0x3c0d6583	0.008630159
45	0xbc27fa0a	-0.010252485
46	0xbdc5422e	-0.096317634
47	0x3d9074a0	0.070534945
48	0xbca6c76f	-0.02035877
49	0xbd7edde5	-0.062223334
50	0x3d3e4dfb	0.046461087
51	0x3d9dd3e8	0.077064335
52	0xbdecaff8	-0.11557001
53	0xbdb90ad6	-0.0903527
54	0xbd1dec54	-0.03855546
55	0x3deb6203	0.114933036
56	0xbd928401	-0.07154084
57	0xbd5f979b	-0.05458794
58	0x3de83841	0.113388546
59	0xbd0a24cf	-0.03372651
60	0xbd2ddfe4	-0.042449847
61	0x3cd7569f	0.026286421
62	0xbd8008be	-0.062516674
63	0xbd9810d8	-0.07425088
64	0xbdad36f0	-0.08457744
65	0xbae1fddd	-0.0017241795
66	0xbd2e322a	-0.04252831
67	0xbdd6e968	-0.104937375
68	0xbd7cf60d	-0.06175809
69	0xbd7382bb	-0.059450846
70	0xbc7978df	-0.015226572
71	0xbdd17307	-0.10227018
72	0x3d75188d	0.059837867
73	0x3d5f6c8b	0.054546874
74	0x3dab849b	0.08374902
75	0xbd48f301	-0.04905987
76	0x3dbaaf67	0.091154866
77	0xbd652f8c	-0.055953547
78	0x3def9fb2	0.11700381
79	0x3dec635d	0.115423895
80	0x3dbcf032	0.09225501
81	0xbd8d6a54	-0.06905046
82	0x3c40e7c1	0.011774004
83	0x3de3f833	0.111313246
84	0x3d54cd40	0.051953554
85	0xbce86d30	-0.028372377
86	0x3d340eee	0.04395955
87	0xbdb4a7ce	-0.08821069
88	0x3cde4fed	0.027137721
89	0x3dde773f	0.10862588
90	0xbcac4b66	-0.021032047
91	0x3da84573	0.082163714
92	0xbd7f9f35	-0.06240769
93	0x3d473b14	0.048640326
94	0x3aa9c11c	0.0012951228
95	0xbc39eb2d	-0.011347574
96	0x3d8d76c3	0.069074176
97	0x3d96c8ac	0.07362494
98	0x3de9441d	0.11389945
99	0x3b8cf928	0.0043021627
100	0x3bb02b85	0.0053762817
101	0x3d9d1ca1	0.07671476
102	0x3dd63ff8	0.1046142
103	0xbdc28bfc	-0.09499356
104	0xbcac160f	-0.021006612
105	0x3d6dcff1	0.058059637
106	0xbbd5a821	-0.0065202867
107	0xbd9159e6	-0.07097225
108	0xbdd278ee	-0.10276972
109	0x3da89769	0.08232004
110	0x3c98c570	0.018648833
111	0xbddb49b1	-0.10707415
112	0xbd655a6c	-0.055994436
113	0xbd0d02e3	-0.03442658
114	0xbd9b21a8	-0.07574779
115	0x3cf08208	0.029358879
116	0xbd12fdf6	-0.035886727
117	0x3d119ba2	0.035548814
118	0x3dc1b65d	0.09458611
119	0xbd9e2db8	-0.07723564
120	0xbcab7091	-0.0209277
121	0xbc7616cd	-0.015020085
122	0x3d8c9746	0.068647906
123	0x3ce51d69	0.027968125
124	0x3dee65eb	0.11640533
125	0xbbeb2f69	-0.0071772826
126	0xbc9c42c3	-0.019074803
127	0xbde62910	-0.11238301
128	0x3cccd2ef	0.025002925
129	0x3d39aeef	0.045332845
130	0xbd0b7cba	-0.034054495
131	0x3d918c37	0.07106822
132	0x3d6dbdcb	0.05804233
133	0x3d28a56f	0.041173395
134	0x3c935e06	0.01798917
135	0xbd42e115	-0.047577936
136	0xbd6cfb4b	-0.05785684
137	0xbdd74dee	-0.10512911
138	0x3d868d53	0.06569924
139	0x3db1e820	0.086868525
140	0x3df5aa65	0.11995391
141	0x3dbb1c37	0.09136241
142	0xbd99c65a	-0.07508536
143	0xbc15c2d7	-0.009140692
144	0x3db4f6a2	0.08836104
145	0xbbf37b04	-0.007430436
146	0x3d2a7fb6	0.0416257
147	0xbd090fad	-0.033462215
148	0x3db845a8	0.08997661
149	0xbd945305	-0.07242397
150	0xbdb0e8ed	-0.08638177
151	0x3bac611b	0.0052605993
152	0xbd39bb9c	-0.045344934
153	0xbd9f6d0c	-0.07784471
154	0xbacec01e	-0.0015773808
155	0x3c2c6275	0.010521521
156	0x3cd6edee	0.0262365
157	0x3c25dfc0	0.010124147
158	0x3de9d03e	0.11416672
159	0x3dc1b480	0.09458256
160	0xbd7f2f31	-0.062300865
161	0xbdabfcf6	-0.08397858
162	0x3de2f43b	0.110817395
163	0x3ce895ad	0.028391683
164	0xbdd44e2b	-0.10366472
165	0x3cf8edb4	0.030386783
166	0xbded691c	-0.11592314
167	0xbc6907d8	-0.0142230615
168	0xbde22c6a	-0.110436276
169	0xbd6f213c	-0.058381304
170	0x3d8ccd9b	0.06875154
171	0x3d826cf1	0.06368435
172	0xbd891fd9	-0.066955276
173	0xbddc39c5	-0.10753206
174	0x3d7ebf2a	0.062194027
175	0x3ddd42c9	0.10803754
176	0x3d9ecd4a	0.077539995
177	0x3da2da47	0.07951789
178	0xbdd063a4	-0.10175255
179	0x3d8e4717	0.06947153
180	0xbd8e7702	-0.06956293
181	0xbd576955	-0.052590687
182	0x3b8226a9	0.003971894
183	0xbde28b18	-0.11061686
184	0x3bb7e71d	0.0056122676
185	0x3d1b786d	0.037956644
186	0x3d5fbc14	0.054622725
187	0xbdeafe8a	-0.11474331
188	0xbdd3842d	-0.10327945
189	0x3db89243	0.09012272
190	0x3d7cd567	0.061726954
191	0xba8aba84	-0.001058415
192	0x3db2aa2f	0.08723866
193	0x3bcfcf84	0.0063418765
194	0xbdcb6689	-0.099316664
195	0xbd62e2bd	-0.055392016
196	0xbda8718d	-0.08224783
197	0x3d5b7137	0.053574767
198	0xbbee8f49	-0.0072802645
199	0x3cc633bf	0.024194596
200	0x3d12913d	0.03578304
201	0x3deb49ca	0.114886835
202	0x3d340ffa	0.04396055
203	0xbcb2b6ab	-0.021815619
204	0xbdcf139b	-0.10111161
205	0x3d9cdaa0	0.07658887
206	0xbb89f09d	-0.0042095915
207	0xbde0e2ec	-0.10980782
208	0xbcad4667	-0.021151735
209	0xbd84bca6	-0.06481294
210	0x3d844aa5	0.0645955
211	0xbd54a297	-0.05191287
212	0x3dc593b7	0.09647315
213	0xbde68a70	-0.112568736
214	0xbd8cb469	-0.06870348
215	0xbc06c344	-0.008225266
216	0x3c916511	0.017748388
217	0xbd9128a4	-0.0708783
218	0x3d8bcdbc	0.0682635
219	0xbd167d7b	-0.03674076
220	0xbc9f162d	-0.019419754
221	0x3db577aa	0.08860715
222	0xbd154a7b	-0.036447983
223	0x3df33ca8	0.11876804
224	0xbdb0bc27	-0.08629637
225	0xbd507e84	-0.050901905
226	0x3d9c89c2	0.07643463
227	0xbd09359a	-0.033498384
228	0x3c8dbdbe	0.01730239
229	0x3da463b4	0.08026829
230	0x3decaf91	0.11556924
231	0x3d1a882b	0.037727516
232	0xbd727509	-0.059193645
233	0xbdb0ef73	-0.08639421
234	0xbd7d310c	-0.061814353
235	0x3c316632	0.010827588
236	0xbd5d10a0	-0.053970933
237	0xbdc22d9b	-0.09481355
238	0xbc961718	-0.018321559
239	0xbdd49567	-0.10380059
240	0xbcf30dc5	-0.029669652
241	0x3d307bfa	0.043086983
242	0xbde92d3f	-0.11385583
243	0x3d968e40	0.07351351
244	0xbd9063ce	-0.07050286
245	0xbd6b22d8	-0.057406276
246	0x3c980711	0.018558057
247	0xbd9a9995	-0.07548825
248	0x3d1892d4	0.0372494
249	0xbd64ab9d	-0.055827726
250	0xbc781662	-0.015142055
251	0xbd4662cc	-0.048434064
252	0xbd282d05	-0.04105856
253	0x3dbfdad2	0.093679085
254	0x3d18d127	0.03730884
255	0x3c8fff9b	0.017577937

arith.constant7 f4 [16, 3, 3, 16]
0	0xbbf7869f	-0.00755389
1	0x3e031f95	0.12805016
2	0xbe09a602	-0.13442233
3	0x3daf6c7f	0.08565616
4	0xbda50e03	-0.08059313
5	0x3d58cff3	0.05293269
6	0xbdaaf1c7	-0.083468966
7	0xbd9508f3	-0.072770976
8	0x3dc0215b	0.09381362
9	0x3d77596a	0.060388006
10	0xbe1214c9	-0.14265741
11	0x3e0cb39b	0.13740389
12	0x3df75562	0.12076832
13	0xbd24149b	-0.040058713
14	0xbd4240d9	-0.047425125
15	0xbcc7aa4a	-0.024373192
16	0x3d3f3a0d	0.04668622
17	0xbdb46505	-0.088083304
18	0x3e05cb47	0.13065825
19	0x3d052682	0.032507427
20	0x3cf721d8	0.030167505
21	0x3d9857f0	0.07438648
22	0xbd486e05	-0.048933048
23	0x3dbbfbc1	0.091788776
24	0xbc3a2903	-0.011362317
25	0xbcd98cfa	-0.02655648
26	0xbd06a407	-0.032871272
27	0xbd60d835	-0.05489369
28	0xbdd62dcd	-0.104579546
29	0x3db08870	0.086197734
30	0xbbf220f4	-0.007389182
31	0xbb0aa36f	-0.0021154543
32	0xbcc18ce0	-0.023626745
33	0xbcd2dad6	-0.025739115
34	0x3e01a82f	0.12661813
35	0xbd0f432b	-0.034976166
36	0xbda72b79	-0.081625886
37	0x3da5c382	0.08093931
38	0x3df03876	0.11729519
39	0xbd42e442	-0.047580965
40	0x3df2ad36	0.118494436
41	0xbe054429	-0.13014282
42	0x3d5ae2b6	0.053438865
43	0x3da86a76	0.08223431
44	0xbd94f479	-0.07273192
45	0xbdbb5c32	-0.09148444
46	0xbd0774ca	-0.033070363
47	0x3ccb6f97	0.024833484
48	0xbcec4362	-0.028840724
49	0xbde14490	-0.109994054
50	0x3acf5795	0.0015818948
51	0xbe048b75	-0.12943824
52	0xbd4ec9b7	-0.05048534
53	0xbd6d27cb	-0.057899278
54	0x3e08a2c0	0.13343334
55	0xbd578de1	-0.05262554
56	0xbbd55c92	-0.0065112794
57	0x3dc045f1	0.0938834
58	0xbddf09ff	-0.108905785
59	0xbddda2f7	-0.10822099
60	0x3dee0ac9	0.11623151
61	0x3cf322cd	0.02967968
62	0xbe0ff5d1	-0.14058615
63	0x3ded6da7	0.1159318
64	0xbd3f692b	-0.046731155
65	0x3d89b362	0.06723668
66	0x3dfd2a55	0.1236159
67	0xbce16cb5	-0.027517656
68	0x3df38c2b	0.11891969
69	0xbd715b9c	-0.058925256
70	0xbd88356f	-0.06650817
71	0x3dc6e945	0.097124614
72	0x3d81b5a7	0.063334756
73	0x3d8d74c0	0.06907034
74	0xbe0bf112	-0.1366618
75	0xbdf49769	-0.11942942
76	0x3dbf87e8	0.09352094
77	0xbdbc8191	-0.092044
78	0xbcc2f011	-0.023796113
79	0xbca4d442	-0.020120744
80	0x3db74718	0.08949107
81	0x3c8e00fb	0.017334452
82	0xbdb9166a	-0.09037478
83	0xbdf42c9f	-0.11922573
84	0x3df39595	0.11893765
85	0xbde563d9	-0.11200685
86	0x3e15868c	0.14602107
87	0xbcf7e056	-0.030258339
88	0x3db4ec1d	0.088340975
89	0xbddb229f	-0.10699963
90	0x3d3adb17	0.045619097
91	0x3c915038	0.017738447
92	0x3d8b211f	0.06793427
93	0x3cc3d4ba	0.023905147
94	0xbceae9ee	-0.028676
95	0x3e127cad	0.14305373
96	0x3dc061d6	0.09393661
97	0xbde59f54	-0.1121203
98	0x3e0306fa	0.1279563
99	0xbd918693	-0.07105746
100	0xbd20c012	-0.039245673
101	0xbe180f11	-0.14849497
102	0x3d3c2d3e	0.045941584
103	0xbd8b2c99	-0.06795616
104	0xbc30bbc2	-0.010786952
105	0x3d1cd1f8	0.03828618
106	0x3e13301b	0.1437382
107	0x3dc5ed40	0.096643925
108	0x3d6161aa	0.05502478
109	0xbd012243	-0.031526815
110	0x3dd5e7d1	0.10444606
111	0xbc56bcaa	-0.013106504
112	0x3dd70966	0.104998395
113	0xbd99a036	-0.07501261
114	0xbe146305	-0.14490898
115	0xbd63dcc6	-0.055630468
116	0x3d465bb5	0.048427302
117	0xbdfab5a5	-0.12241677
118	0x3df45448	0.11930138
119	0x3d5fe1bc	0.054658636
120	0xba9aef52	-0.0011820591
121	0x3df3808b	0.11889752
122	0xbe10450f	-0.14088844
123	0xbd08f772	-0.033439107
124	0x3d776585	0.06039955
125	0x3ccb5cce	0.024824526
126	0xbd0ef78c	-0.034904048
127	0xbd639e44	-0.055570856
128	0xbd451bd4	-0.048122242
129	0x3dcd8380	0.10034847
130	0x3e0127f1	0.12612893
131	0x3d0b4bfb	0.034008007
132	0x3d81b248	0.063328326
133	0xbd929367	-0.07157021
134	0xbd950175	-0.072756685
135	0xbdb48fb1	-0.088164695
136	0x3dbd11c2	0.09231903
137	0x3ca12c64	0.019674487
138	0x3d90269b	0.070386134
139	0x3e13e9bf	0.14444636
140	0x3d04d6f3	0.032431554
141	0xbe00f450	-0.12593198
142	0x3c25699c	0.01009598
143	0xbdee451a	-0.11634274
144	0xbe03af41	-0.12859823
145	0x3d9e0150	0.07715094
146	0x3e14566b	0.14486091
147	0xbce93261	-0.028466405
148	0x3c6570e6	0.014003968
149	0x3e0d7438	0.13813865
150	0xbd0d1b46	-0.034449838
151	0xbe0103ed	-0.12599154
152	0x3d7a6c99	0.061138723
153	0xbd33f324	-0.04393305
154	0xbdb97da3	-0.090571664
155	0x3d815a6e	0.06316076
156	0x3ddddbd5	0.10832945
157	0xbde867b1	-0.113479026
158	0xbdf4c784	-0.11952117
159	0x3da18b5a	0.07887907
160	0x3daddacf	0.08489
161	0xbd6dc81a	-0.05805216
162	0x3d0700ea	0.032959856
163	0x3d7c42be	0.061587088
164	0xbccf18cc	-0.025280379
165	0xbca38a90	-0.019963533
166	0xbd2b3b21	-0.041804437
167	0xbdb19a0a	-0.08671959
168	0x3d16e488	0.036839038
169	0xbddafaa6	-0.10692339
170	0xbe123945	-0.14279659
171	0x3deb86c8	0.11500317
172	0xbdd8bac7	-0.105825
173	0xbe0a2201	-0.13489534
174	0xbdc06a50	-0.093952775
175	0x3c083ad3	0.008314806
176	0xbdf9fea3	-0.12206771
177	0x3d7245a4	0.059148446
178	0x3c49dc1e	0.012320546
179	0x3cede2c6	0.029038798
180	0x3d06c8a8	0.032906204
181	0x3db649cd	0.08900795
182	0xbd9e5d9f	-0.077327006
183	0x3dd849c7	0.10560947
184	0x3c520867	0.012819386
185	0xbdce891e	-0.10084747
186	0x3d971fdf	0.07379126
187	0x3d8a1232	0.06741752
188	0xbd8fc0cb	-0.07019194
189	0xbc825597	-0.015909953
190	0x3c8848c7	0.016636265
191	0x3d4dc64b	0.050237935
192	0xbd8c1b1c	-0.06841108
193	0xbd17745f	-0.036976214
194	0x3d8ae66c	0.06782231
195	0xbd5c5c46	-0.053798936
196	0xbd6d773e	-0.057975046
197	0xbde23937	-0.11046069
198	0x3e052447	0.1300212
199	0xbd2191bb	-0.03944562
200	0xbdbfd15a	-0.093661025
201	0x3dc09841	0.0940404
202	0x3dcb37de	0.09922765
203	0xbc8f5383	-0.017495876
204	0x3df721e6	0.120670125
205	0xbdc00963	-0.093767904
206	0x3e071ecf	0.13195346
207	0x3c793c10	0.015212074
208	0xbdc706ba	-0.0971808
209	0x3dfc2ef6	0.123136446
210	0xbdacca34	-0.08437005
211	0x3c320148	0.010864563
212	0xbda358bb	-0.07975908
213	0xbda87c55	-0.082268395
214	0xbda8f606	-0.0825005
215	0xbd87d984	-0.06633285
216	0x3df39ebe	0.11895512
217	0x3db9cfca	0.09072836
218	0x3c109da2	0.008826645
219	0xbd201b97	-0.03908881
220	0x3d18b630	0.037283123
221	0x3d613772	0.054984517
222	0x3d0393cf	0.032123383
223	0x3d393343	0.045214903
224	0x3c6ccb7b	0.01445281
225	0xbe052f6b	-0.1300637
226	0xbdc990ff	-0.09842109
227	0xbd30dcfa	-0.04317949
228	0xbdb07c3d	-0.086174466
229	0xbdfc4874	-0.12318507
230	0x3d476079	0.048675988
231	0xbd9be96d	-0.07612882
232	0x3dccde2e	0.10003315
233	0x3d63f969	0.055657778
234	0x3d5cd20c	0.053911254
235	0x3cf8a11a	0.030350257
236	0xbd6dc043	-0.058044683
237	0x3d072762	0.032996543
238	0xbcbc4832	-0.022983644
239	0x3dfd7d18	0.12377375
240	0xbd88ede1	-0.06685997
241	0xbd31cd80	-0.04340887
242	0x3d2d1ccd	0.042263795
243	0xbdbd697a	-0.09248634
244	0x3c50df72	0.012748586
245	0x3dd13c3c	0.10216567
246	0x3db3f5e3	0.087871335
247	0x3e0f7761	0.14010383
248	0x3dddf986	0.108386084
249	0xbc6fe549	-0.014642068
250	0xbd0e9a6c	-0.034815237
251	0xbd2fec7e	-0.042950146
252	0x3cbf5329	0.023355084
253	0xbdab4709	-0.08363158
254	0x3de5cf75	0.1122121
255	0xbddacf9c	-0.106841296

arith.constant8 f4 [64, 2048]
0	0xbd381c70	-0.044948995
1	0x3d356098	0.044281572
2	0x3d3672ea	0.044543184
3	0x3b946550	0.004528679
4	0x3b40f193	0.0029440864
5	0xbcabe414	-0.02098278
6	0x3ccbce29	0.024878578
7	0xbd0a5edf	-0.033781882
8	0x3bc4a5ae	0.006001196
9	0x3ca002ee	0.019532647
10	0xbd5b527b	-0.053545456
11	0x3d289042	0.0411532
12	0x3cd1e4ad	0.025621736
13	0x3bee93ef	0.0072808187
14	0x3cbdb04d	0.023155356
15	0xbcba32aa	-0.022729237
16	0xbd0ca29b	-0.03433476
17	0xba9419f3	-0.0011299237
18	0x3b188757	0.0023274028
19	0xbcb84e50	-0.02249828
20	0x3cfe8810	0.031070739
21	0xbc1c146a	-0.0095263515
22	0x3cc0e265	0.023545453
23	0xbd38b718	-0.045096487
24	0x3bf3dec1	0.007442326
25	0xbd304e1f	-0.043043252
26	0x3d1acdb3	0.037793826
27	0x3d381c20	0.044948697
28	0x3d4d816c	0.050172254
29	0xbd1939a5	-0.03740849
30	0xbd14c12c	-0.036317036
31	0xbd66ee48	-0.056379586
32	0xbd0c19ea	-0.0342044
33	0x3cdcbc02	0.026945118
34	0x3cab42da	0.0209059
35	0xbc542532	-0.012948321
36	0x3c5974b6	0.013272455
37	0xbd2d9e8d	-0.042387534
38	0xbd312e95	-0.043257315
39	0x3d2b667d	0.041845787
40	0xbb063c67	-0.002048278
41	0xbd530baa	-0.051524796
42	0xbd3135c2	-0.043264158
43	0x3ce6a57c	0.028155081
44	0xbd12a7f0	-0.03580469
45	0xbce83512	-0.028345618
46	0xbd4e1180	-0.050309658
47	0x3d0069c4	0.031350866
48	0x3c48cabc	0.012255367
49	0xbc50c016	-0.012741109
50	0x3ce011c9	0.02735223
51	0xbd1c8997	-0.038217153
52	0x3d4b8cf0	0.049694955
53	0x3ba6d2d1	0.0050910492
54	0x3d57e6b5	0.052710254
55	0xbd29e8af	-0.04148167
56	0xbc6511b5	-0.0139812725
57	0x3d2317d5	0.03981765
58	0x3d24a614	0.040197447
59	0x3bad7a0b	0.0052940897
60	0x3c8bc648	0.017062321
61	0xbd36d755	-0.04463895
62	0x3d2cd582	0.042195804
63	0x3d3496a3	0.04408897
64	0xbc83daf3	-0.016095614
65	0xbb0e1821	-0.0021681862
66	0x3cf0e972	0.02940819
67	0xbd14f77f	-0.036368843
68	0xbd2edc56	-0.042690597
69	0x3c042ca3	0.008067283
70	0x3cd45901	0.025921347
71	0x3d1b8280	0.03796625
72	0x3d127242	0.035753496
73	0xbc995e09	-0.018721597
74	0x3ce7db2d	0.028302753
75	0x3d081788	0.033225566
76	0xbc237486	-0.009976512
77	0xbc5e382d	-0.013563198
78	0x3ba50e7e	0.005037128
79	0xbc37a917	-0.011209748
80	0x3d13ba68	0.036066443
81	0x3bfebc8a	0.0077739405
82	0x3b96478f	0.004586167
83	0xbd06e4dc	-0.0329331
84	0xbd0b7907	-0.034050968
85	0xbd0373c0	-0.03209281
86	0x3c97496f	0.018467633
87	0x3c37649e	0.011193423
88	0xbc7e9700	-0.015538931
89	0x3c9d9486	0.01923586
90	0x3b00b22e	0.0019637453
91	0x3d49a09f	0.049225446
92	0xbd344ea0	-0.044020295
93	0xbc03e2d6	-0.008049687
94	0xbc0dd75a	-0.008657301
95	0xbcc2e1dc	-0.023789339
96	0xbb90f00d	-0.0044231475
97	0x3cbbaade	0.022908624
98	0x3d47dcd8	0.048794597
99	0x3d1bc151	0.038026158
100	0xbc35eb38	-0.011103444
101	0xbba6882d	-0.0050821514
102	0x3c2bfdae	0.010497494
103	0xbd0612d8	-0.032732815
104	0x3d2eaad8	0.042643398
105	0x3d23c154	0.039979294
106	0xbd19445d	-0.037418712
107	0xbc17db18	-0.009268545
108	0xbd07f728	-0.03319469
109	0xbc0a3a70	-0.008436784
110	0x3d257c09	0.040401492
111	0x3b6ffffa	0.003662108
112	0xbc85598d	-0.016278053
113	0xbc8cd3ca	-0.017190833
114	0x3d3a3b9a	0.045466997
115	0xbd40282f	-0.046913322
116	0xbd17f906	-0.03710272
117	0x3d1a448a	0.03766302
118	0x3cfe480b	0.031040212
119	0x3d163f72	0.0366816
120	0xbd405888	-0.04695943
121	0xbd46fb02	-0.048579223
122	0xbc01d05f	-0.007923215
123	0xbca43089	-0.020042675
124	0xbd355ee8	-0.044279963
125	0xbd49de2f	-0.049284156
126	0xbd03ea10	-0.03220564
127	0x3d459f18	0.048247427
128	0xbbefa030	-0.007312797
129	0xbcfcf172	-0.030876849
130	0xba0fff8d	-0.0005493097
131	0x3d0ca87d	0.03434037
132	0xbc8ce062	-0.017196838
133	0xbce66588	-0.028124586
134	0x3d08aa3a	0.033365466
135	0xbc92043c	-0.017824285
136	0x3c5029a9	0.012705245
137	0xbd4a8ce7	-0.04945078
138	0x3b92ce92	0.0044801915
139	0xbc921f93	-0.017837321
140	0xbd5bd5a0	-0.053670526
141	0xbc2118b2	-0.009832548
142	0xbd38d4ab	-0.04512469
143	0xbd0db25a	-0.034593917
144	0x3d4b7473	0.0496716
145	0x3d2ee623	0.042699944
146	0xbd549ded	-0.051908422
147	0xbc128294	-0.008942265
148	0xbd2369ac	-0.0398957
149	0xbd1ca569	-0.038243685
150	0xbc4ab29a	-0.0123716835
151	0xbc6a3e08	-0.014297016
152	0xbd423972	-0.047418065
153	0xbc6c14a7	-0.014409221
154	0x3b3acb23	0.0028502427
155	0x3b237fd7	0.0024948025
156	0xbd0fb0a9	-0.035080586
157	0xbd49d4c4	-0.049275175
158	0x3d5c883f	0.053840872
159	0xbc502f89	-0.012706646
160	0xbcae6830	-0.021289915
161	0xbd389b11	-0.045069758
162	0xbca4e4d9	-0.020128654
163	0xbcdf9947	-0.027294768
164	0x3d3c44c8	0.045964032
165	0x3cd5a0b1	0.0260776
166	0xbc6d6754	-0.014489967
167	0x3ad7de4c	0.0016469448
168	0xbd3d211c	-0.046174154
169	0xbb9332f8	-0.00449216
170	0xbb1efe2c	-0.0024260385
171	0x3d3fb0e7	0.046799567
172	0xbd3e1fb1	-0.046416942
173	0xbce44f00	-0.027869701
174	0xbc0dc079	-0.008651846
175	0xbc7daa35	-0.015482475
176	0x3cbb61fd	0.022873873
177	0xbcfe5491	-0.031046184
178	0x3c6cf3a0	0.014462382
179	0xbbd71266	-0.0065634726
180	0x3cb01156	0.021492641
181	0x3c0b809d	0.0085145505
182	0x3d1ec357	0.03876051
183	0x3c26ed99	0.010188484
184	0xbca39514	-0.019968547
185	0xbd4c1339	-0.04982302
186	0x3d0b7dff	0.034055706
187	0x3d123616	0.03569611
188	0xbd4877be	-0.04894232
189	0x3c8b0086	0.016968023
190	0xbd2bd36e	-0.041949682
191	0xbcf98164	-0.030457206
192	0xbb6c7cb3	-0.0036085069
193	0xbd58f822	-0.052971013
194	0xbc6e882a	-0.014558831
195	0x3b561cd7	0.0032670998
196	0x3cfccdef	0.030859916
197	0xbccdac7f	-0.025106667
198	0xbd42fa81	-0.04760218
199	0x3d3a7c4f	0.045528706
200	0x3cb02131	0.021500202
201	0x3c129717	0.008947155
202	0x3c1904a5	0.009339486
203	0x3c54c08b	0.012985359
204	0xbd26095f	-0.04053628
205	0xbd485e50	-0.04891807
206	0xbc88f1b5	-0.016716817
207	0x3d2c2ffd	0.042037953
208	0xbc7fefed	-0.015621168
209	0x3cdeb348	0.027185097
210	0x3bc134c9	0.005896185
211	0xbd18c047	-0.037292745
212	0xbc7ee881	-0.015558363
213	0x3c812427	0.01576431
214	0xbcc46ff9	-0.023979174
215	0xbc8d2c7d	-0.017233128
216	0x3c8a6e27	0.016898228
217	0x3cf7b521	0.030237736
218	0x3cf390ab	0.029732069
219	0x3d22fc66	0.039791487
220	0x3d52c8e5	0.05146112
221	0xbd01ca79	-0.031687234
222	0xbb769b93	-0.003762935
223	0x3ca6a8a4	0.020344086
224	0x3d37ac39	0.04484198
225	0xbc2c67b8	-0.010522775
226	0xbc4bafb5	-0.012432029
227	0xbd446ba8	-0.04795423
228	0x3c550af2	0.013003098
229	0x3d486cba	0.048931815
230	0xbc12780e	-0.008939756
231	0x3cd47635	0.025935272
232	0xbcd77f0c	-0.026305698
233	0x3c527b53	0.012846786
234	0xbc5a1ba4	-0.013312254
235	0x3ca206ec	0.019778691
236	0xbcd6604c	-0.026168965
237	0xbca06b9c	-0.019582562
238	0xbc3a8c20	-0.0113859475
239	0xbad8556a	-0.0016504948
240	0x3ce39182	0.027779344
241	0xbbfa4b68	-0.0076383837
242	0xbd1dad9b	-0.03849564
243	0xbd0be2c1	-0.034151796
244	0xbc84501c	-0.01615148
245	0x3d0be287	0.03415158
246	0xbd2abb0f	-0.0416823
247	0xbbed1fb6	-0.0072364463
248	0x3d3b1972	0.045678563
249	0x3bcc928e	0.0062430566
250	0xbcdca4eb	-0.026934108
251	0xbc45f2d1	-0.012081818
252	0x3bda64c0	0.0066648424
253	0x3c228af9	0.009920829
254	0xbc02d280	-0.007984757
255	0x3c4307e6	0.011903739

arith.constant9 f4 [64]
0	0x3b0d18e8	0.0021529738
1	0xba8d3e16	-0.0010775949
2	0x3b2b1ca9	0.0026109612
3	0x3950c169	0.00019908477
4	0x3b896bc4	0.004193755
5	0x3a6c75f8	0.0009020264
6	0x3aaeb488	0.0013328949
7	0x3a8e86fc	0.0010873969
8	0x3ad71412	0.001640918
9	0xbb0055f2	-0.0019582477
10	0x3b8a3bf5	0.004218573
11	0x3ac7cce8	0.0015243562
12	0x3b1b0ac0	0.002365753
13	0x3b592c5f	0.003313802
14	0xba6692f4	-0.00087957014
15	0xbba35962	-0.0049850205
16	0xba29a0bb	-0.0006470789
17	0x39114d14	0.00013856991
18	0xbb32c015	-0.0027275134
19	0xb98898f2	-0.00026053895
20	0x3ba23dc8	0.0049512126
21	0xbbbaab5c	-0.005696697
22	0xb9d13e7a	-0.00039910135
23	0x3b8ffaf3	0.004393929
24	0x3b7cf8f1	0.003860053
25	0x3b45359c	0.0030091768
26	0xba67ecba	-0.00088472257
27	0x3ae36300	0.001734823
28	0xbb3e46d4	-0.0029033916
29	0x3b5e2555	0.0033896763
30	0x39b5b8ed	0.0003466079
31	0x39919215	0.00027765395
32	0x39a3b7b1	0.00031226643
33	0xbb893630	-0.004187368
34	0x3b9f65b8	0.0048644207
35	0xbac48401	-0.0014992954
36	0x3b4b32b7	0.003100557
37	0xbb6de610	-0.0036300458
38	0xb9bfc6d2	-0.00036578492
39	0x38a4f7ff	7.866322e-05
40	0x3b342438	0.0027487408
41	0xbb18b40b	-0.0023300673
42	0x3b463de5	0.0030249294
43	0xb9fe41d9	-0.00048495716
44	0x3b2ddd9b	0.0026529792
45	0x3a88c909	0.001043589
46	0x3a1427b8	0.00056516705
47	0x392b31ae	0.00016326338
48	0x3adc533f	0.0016809477
49	0x392150a9	0.00015384205
50	0x39e49f8e	0.00043606426
51	0xbaf3415f	-0.0018558911
52	0x3b9b2a59	0.004735273
53	0x3a1d4507	0.00059993606
54	0xbb68c2e2	-0.003551655
55	0xba28f76c	-0.000644556
56	0x3b44ff9f	0.0030059589
57	0x3a7c3a76	0.00096217485
58	0xbaf94a31	-0.0019019303
59	0xbae5e2e2	-0.001753893
60	0x3acd33af	0.0015655662
61	0x3bc4b5df	0.006003126
62	0x38bc0dd4	8.967114e-05
63	0xba25ecc4	-0.00063295313

sequential_1/batch_normalization_1_2/batchnorm/mul f4 [16]
0	0x401e25e0	2.4710617
1	0x405ecf75	3.4814122
2	0x408d7805	4.420901
3	0x3fe3af45	1.7787863
4	0x406efccf	3.7341802
5	0x405d3096	3.4560905
6	0x4055e865	3.3423092
7	0x405dae28	3.4637547
8	0x40012df0	2.0184288
9	0x404b0f7b	3.1728199
10	0x3fedb1dd	1.8569905
11	0x4097f6fd	4.7489
12	0x3fe94fbb	1.8227457
13	0x3fe3a5ca	1.778497
14	0x40986794	4.762644
15	0x403b3641	2.9251864

sequential_1/batch_normalization_1_2/batchnorm/sub f4 [16]
0	0xbf31438e	-0.69243705
1	0xbf0db3a1	-0.55352217
2	0xbf3c6cd7	-0.73603576
3	0xbf1505a2	-0.5821172
4	0xbf5c1c21	-0.8598042
5	0xbf2da12c	-0.67824054
6	0xbf1e8b26	-0.61931074
7	0xbed8f90c	-0.42377508
8	0xbf1702d8	-0.58988714
9	0xbf0f05a4	-0.5586798
10	0xbf2e7b0a	-0.6815649
11	0xbf1fe14b	-0.62453145
12	0xbf23b88b	-0.63953465
13	0xbf1c7b00	-0.61125183
14	0xbf0cc55c	-0.54988647
15	0xbf524762	-0.8214017

sequential_1/batch_normalization_1/batchnorm/mul f4 [16]
0	0x41ad2746	21.644176
1	0x41cbc545	25.471323
2	0x41a7f44f	20.994291
3	0x40b21dbe	5.5661306
4	0x41cd0307	25.626478
5	0x41057ee6	8.343481
6	0x418d99b0	17.700043
7	0x4064d23d	3.575332
8	0x41b986cd	23.19082
9	0x41c9b7ab	25.214682
10	0x415c3593	13.76308
11	0x41cc298b	25.520285
12	0x41c053af	24.040861
13	0x41c3dd79	24.48314
14	0x41c1dd0c	24.232933
15	0x415c5e54	13.773029

sequential_1/batch_normalization_1/batchnorm/sub f4 [16]
0	0xbdb571cb	-0.08859595
1	0x3b1843cc	0.002323377
2	0xbf8b95ba	-1.0905068
3	0xc003a8dc	-2.0571814
4	0x3b4fe8cd	0.0031724453
5	0xbfde46cf	-1.7365359
6	0xbe2b6178	-0.167364
7	0xc00e76f7	-2.226011
8	0xbe151233	-0.14557724
9	0xbcae7278	-0.021294817
10	0xbf04b86f	-0.51843923
11	0xbb1f6a42	-0.002432481
12	0xbd807b79	-0.062735505
13	0xbd3f0f9f	-0.046645757
14	0xbd4c1d10	-0.049832404
15	0xbf975fde	-1.1826131

sequential_1/batch_normalization_2_1/batchnorm/mul f4 [32]
0	0x3f999e10	1.2001362
1	0x3ff03a3e	1.8767774
2	0x401207fb	2.281737
3	0x3fa4859a	1.2853272
4	0x3f852a7a	1.0403588
5	0x402783d1	2.6174204
6	0x40278743	2.6176307
7	0x3fffffd9	1.9999954
8	0x3fcfc7dc	1.6232867
9	0x4007901f	2.1181715
10	0x4002f8ba	2.046431
11	0x3fca6451	1.5811864
12	0x3fe7f51c	1.8121676
13	0x3fa25d67	1.2684754
14	0x4003912b	2.0557353
15	0x4038ea5d	2.8893044
16	0x3fbb3296	1.4624813
17	0x3fa9dc8a	1.3270428
18	0x400141ea	2.019648
19	0x3fab3767	1.3376282
20	0x3fa41548	1.2818995
21	0x3f91779a	1.1364625
22	0x4078c338	3.8869152
23	0x3fa0481a	1.2522004
24	0x3fa629ac	1.2981467
25	0x3fe68ab5	1.801108
26	0x3fa82350	1.3135777
27	0x400c58f0	2.1929283
28	0x4023bfc3	2.5585792
29	0x3f8fc21c	1.1231112
30	0x3f9cb0a5	1.2241408
31	0x3fae40b0	1.3613491

sequential_1/batch_normalization_2_1/batchnorm/sub f4 [32]
0	0xbf172702	-0.59043896
1	0xbf16f6de	-0.5897044
2	0xbf02412f	-0.5088071
3	0xbf343829	-0.70398194
4	0xbf1f898a	-0.6231924
5	0xbf1633a8	-0.5867257
6	0xbf1aa58d	-0.6040886
7	0xbf13032f	-0.5742673
8	0xbf106a78	-0.5641246
9	0xbef6beb7	-0.4819238
10	0xbefb7217	-0.4911048
11	0xbf2dc1f1	-0.67874056
12	0xbf37bddd	-0.71774083
13	0xbf24bbdb	-0.64349145
14	0xbefe2158	-0.49634814
15	0xbf0a0c2c	-0.5392482
16	0xbeff91c7	-0.49915907
17	0xbf35cd94	-0.7101681
18	0xbf1bd32b	-0.6086909
19	0xbf465b5c	-0.77483153
20	0xbf30f0cd	-0.6911743
21	0xbf201635	-0.62533885
22	0xbee7436b	-0.45168623
23	0xbf4a12ce	-0.78934944
24	0xbf02f92d	-0.5116146
25	0xbf31aaaf	-0.6940107
26	0xbf206355	-0.6265157
27	0xbf378338	-0.716846
28	0xbefbab99	-0.49154356
29	0xbf4b0642	-0.79306424
30	0xbf36e27e	-0.7143935
31	0xbf3bdafc	-0.7338102

sequential_1/batch_normalization_3_1/batchnorm/mul f4 [32]
0	0x3fcdf984	1.6091771
1	0x4004850d	2.0706208
2	0x4001a0d3	2.025441
3	0x3ffcd1a4	1.9751477
4	0x3fe0cf9e	1.756336
5	0x3f97f542	1.1871722
6	0x3fe74ca8	1.8070269
7	0x3fff9960	1.9968681
8	0x3fd4db8d	1.6629502
9	0x3ff93724	1.9469953
10	0x4004b620	2.073616
11	0x3fe2a28b	1.7705854
12	0x3fea4ef2	1.8305342
13	0x3fb8ff05	1.4452826
14	0x40028774	2.0395174
15	0x3fdc23ee	1.7198465
16	0x3fd86b5f	1.6907767
17	0x400e9028	2.2275486
18	0x3fef805e	1.871105
19	0x3fa79fca	1.3095639
20	0x3ff325a8	1.8995867
21	0x3fd3bc1b	1.654178
22	0x3fcedcd3	1.616114
23	0x3fc0e700	1.5070496
24	0x3fd1fd65	1.6405455
25	0x3ff05df3	1.8778671
26	0x3fd393af	1.6529444
27	0x3fb89916	1.4421718
28	0x3ffea931	1.9895383
29	0x3fba6696	1.4562557
30	0x3fbc010f	1.4687823
31	0x40030183	2.0469673

sequential_1/batch_normalization_3_1/batchnorm/sub f4 [32]
0	0xbf1f2c23	-0.6217672
1	0xbf1f789d	-0.62293416
2	0xbf25e9c8	-0.64809847
3	0xbf2528b5	-0.6451524
4	0xbf1c6121	-0.61085707
5	0xbf13f1d6	-0.5779089
6	0xbf1f023d	-0.6211279
7	0xbf22314d	-0.6335648
8	0xbf1a7b29	-0.6034418
9	0xbf3bfc8d	-0.73432237
10	0xbf2eb760	-0.6824856
11	0xbf2b0a39	-0.66812474
12	0xbf2d61ff	-0.67727655
13	0xbf389125	-0.7209647
14	0xbf255a00	-0.64590454
15	0xbf2071c8	-0.62673616
16	0xbf3df7cf	-0.7420625
17	0xbf2e3768	-0.68053293
18	0xbf17fd43	-0.5937082
19	0xbf249a3f	-0.6429786
20	0xbf3bbc66	-0.7333435
21	0xbf14af76	-0.5808023
22	0xbf170a6a	-0.59000266
23	0xbf1947e3	-0.59875315
24	0xbf167143	-0.58766574
25	0xbf23e665	-0.6402343
26	0xbf1a1c53	-0.6019947
27	0xbf1c8f60	-0.6115627
28	0xbf41b5bc	-0.7566793
29	0xbf157b9e	-0.5839175
30	0xbf4c8c85	-0.79901916
31	0xbf254351	-0.6455584

sequential_1/conv2d_1/convolution f4 [16, 3, 3, 3]
0	0x3d4580d5	0.048218567
1	0x3db0684e	0.086136445
2	0x3e220500	0.1582222
3	0xbe1ab7c1	-0.15109159
4	0xbe0b3a17	-0.13596378
5	0x3e03e282	0.12879375
6	0xbdd59c87	-0.10430246
7	0xbe29b44a	-0.16572681
8	0xbdc28da8	-0.09499675
9	0xbe169684	-0.14705855
10	0xbd27035a	-0.04077468
11	0x3de3bd7c	0.11120126
12	0x3c41538a	0.011799702
13	0x3ce9449d	0.0284751
14	0x3ca2f6b5	0.01989303
15	0xbdc6fdd8	-0.097163856
16	0x3d409c87	0.047024276
17	0x3c9f1107	0.019417299
18	0x3dc75e18	0.09734744
19	0xbd19e0c7	-0.03756788
20	0xbd15eccf	-0.03660279
21	0x3e3130a5	0.17303713
22	0xbdb1fca7	-0.08690768
23	0x3dd030f0	0.10165584
24	0xbe04f252	-0.12983063
25	0x3dc84234	0.09778252
26	0xbe2a52d3	-0.16633157
27	0xbdfeebc8	-0.124473155
28	0x3cf43f8c	0.029815458
29	0x3d35141f	0.044208642
30	0x3c84c660	0.016207874
31	0xbdbc433e	-0.09192513
32	0x3e2e5a5a	0.17026654
33	0xbe1af9ab	-0.15134303
34	0x3cfcce7d	0.03086018
35	0xbdecbd47	-0.11559539
36	0xbdcfa968	-0.101397336
37	0xbe02d9ae	-0.1277835
38	0x3d49e13e	0.049287073
39	0xbe37ab29	-0.17936386
40	0x3d732e52	0.059370346
41	0x3c3b7d19	0.0114434
42	0xbd2bc5b7	-0.041936602
43	0xbe35d7f6	-0.17758164
44	0x3d8bc478	0.06824583
45	0xbe25a0df	-0.16174649
46	0x3dee72a6	0.11642961
47	0xbe3f969e	-0.187098
48	0x3e302ba9	0.17204155
49	0xbe3a636d	-0.1820199
50	0x3e3d595c	0.18491119
51	0xbdc94af4	-0.09828749
52	0xbc4ea353	-0.012612182
53	0xbdf9e753	-0.12202325
54	0x3e10f442	0.14155677
55	0x3d97104d	0.07376156
56	0xbe33c932	-0.17557219
57	0x3d50b4b5	0.050953586
58	0xbdf7e835	-0.12104837
59	0x3e1d3c18	0.15354955
60	0xbd40354c	-0.046925828
61	0xbdc25ffa	-0.09490962
62	0x3d98fc30	0.07469976
63	0x3d32aae0	0.04361999
64	0x3deac4b3	0.11463299
65	0x3d14a9e4	0.036294833
66	0x3d9f624e	0.07782422
67	0xbe261435	-0.16218646
68	0x3bf29e85	0.007404151
69	0x3d2cc425	0.042179246
70	0xbe401d18	-0.18761098
71	0x3d1df64a	0.038564958
72	0xbe37d7f4	-0.17953473
73	0xbe015b14	-0.126324
74	0x3e094c34	0.13407975
75	0xbcc39bc3	-0.023877984
76	0x3cec688d	0.028858447
77	0x3c3d7e68	0.011565782
78	0x3df4dcbd	0.11956165
79	0x3e37d3eb	0.17951934
80	0xbe2ca1cb	-0.16858594
81	0x3e27ccc4	0.16386706
82	0xbd9c7c47	-0.076408915
83	0x3e1ac136	0.15112767
84	0x3dec4c5d	0.11538003
85	0x3da71225	0.08157758
86	0xbdbc0e60	-0.09182429
87	0xbcd8c101	-0.026459219
88	0x3d65edf3	0.05613513
89	0x3e16f058	0.14740121
90	0xbe4132c4	-0.18867022
91	0x3dc4c5f8	0.09608072
92	0xbd31a21b	-0.043367486
93	0xbdc29e7b	-0.09502884
94	0x3e2b40d9	0.16723956
95	0xbe16d85b	-0.1473097
96	0xbdbf350b	-0.09336289
97	0x3d298581	0.041387085
98	0x3e0b0708	0.13576901
99	0xbb907d12	-0.004409441
100	0x3de10ae9	0.10988409
101	0x3e023642	0.1271601
102	0x3d9fa630	0.077953696
103	0xbdb42ff6	-0.0879821
104	0x3dde2ed4	0.108487755
105	0x3e03624d	0.12830468
106	0x3cd0b2a7	0.025475813
107	0x3da674f7	0.08127778
108	0xbe391dbc	-0.18077749
109	0x3e1aca24	0.15116173
110	0x3ce0ca3c	0.027440183
111	0x3d935a9f	0.07195019
112	0xbcb2daa7	-0.021832777
113	0xbe1672cb	-0.14692228
114	0xbd608526	-0.05481448
115	0xbe002401	-0.12513734
116	0x3e1b6635	0.15175708
117	0x3d1697c8	0.036765844
118	0xbd8167d4	-0.06318632
119	0xbd304a72	-0.043039747
120	0x3d73a4f8	0.0594835
121	0xbdccf706	-0.100080535
122	0x3b881d78	0.0041539036
123	0xbd7ac9ad	-0.06122749
124	0xbe3692b8	-0.17829406
125	0xbe12b26d	-0.14325877
126	0x3da51a79	0.0806169
127	0xbe2ebf48	-0.17065156
128	0x3e274d18	0.16338003
129	0xbe078afa	-0.13236609
130	0x3d15ca8b	0.036570113
131	0x3e0625cf	0.1310036
132	0xbe095607	-0.13411723
133	0x3d2a8f43	0.04164053
134	0xbd694f34	-0.0569603
135	0xbdba7b71	-0.09105576
136	0xbd9b3a90	-0.07579529
137	0xbddfecc4	-0.10933831
138	0x3defcc8c	0.11708936
139	0xbe418a86	-0.18900499
140	0x3d1245e0	0.03571117
141	0x3dc1cfdd	0.09463475
142	0x3c6a3246	0.014294213
143	0x3dd23215	0.10263459
144	0x3dc5934b	0.096472345
145	0x3e314862	0.17312768
146	0x3e0a9576	0.13533577
147	0x3dc493ca	0.09598501
148	0x3e2bc344	0.16773707
149	0x3e0bf8e9	0.1366917
150	0xbd8a7155	-0.067598976
151	0x3d7781d4	0.060426548
152	0x3e37d9e6	0.17954215
153	0x3e0548b1	0.13016011
154	0x3ddfc67d	0.109265305
155	0xbd490296	-0.04907473
156	0xbe141efc	-0.14464945
157	0xbe3f9384	-0.18708616
158	0xbe37c4ef	-0.17946218
159	0xbe128d4b	-0.14311711
160	0x3bb57e6c	0.0055387523
161	0x3d6a7096	0.057236277
162	0xbe31f29e	-0.17377707
163	0xbbd853de	-0.0066017946
164	0xbd423e5e	-0.04742276
165	0xbd04a3a8	-0.032382637
166	0xbdab4300	-0.083623886
167	0xbdf2d933	-0.11857834
168	0x3d934962	0.07191731
169	0x3c499de6	0.012305712
170	0x3c1f5c9e	0.0097266715
171	0xbb802bf7	-0.003911491
172	0xbd1cb33e	-0.038256876
173	0x3dbe1a9a	0.092824176
174	0x3e0e4474	0.138933
175	0x3cd6e8e1	0.026234092
176	0x3e300fed	0.17193575
177	0x3db947f4	0.09046927
178	0xbcdb02a7	-0.026734663
179	0xbd66d091	-0.05635125
180	0xbe36d29f	-0.17853783
181	0xbd56df27	-0.05245891
182	0xbe07fff5	-0.13281234
183	0xbe1d988a	-0.1539022
184	0x3e03d211	0.12873103
185	0x3de8ec8b	0.11373242
186	0xbe32b133	-0.17450409
187	0x3df4a1d3	0.11944928
188	0x3e36842a	0.17823854
189	0x3cd20dfe	0.025641438
190	0x3e25cff0	0.16192603
191	0xbd9d0572	-0.07667054
192	0xbd1ab021	-0.037765626
193	0x3cac250e	0.021013763
194	0xbde4c255	-0.111698784
195	0xbd496408	-0.049167663
196	0xbc649d4f	-0.013953521
197	0x3d2b489a	0.041817285
198	0xbd8df7b6	-0.06932013
199	0x3e1b7c77	0.15184198
200	0x3db23005	0.08700565
201	0x3df628f6	0.120195314
202	0x3d9c5be0	0.07634711
203	0xbbf3592d	-0.007426402
204	0x3da057b8	0.07829231
205	0xbd4458ce	-0.047936253
206	0x3e1ed738	0.15511787
207	0x3e39a957	0.18131004
208	0x3e3338a8	0.17502081
209	0x3e1f78b6	0.15573391
210	0x3e2ae54a	0.1668903
211	0x3e02bc93	0.12767248
212	0xbce5c330	-0.028047174
213	0x3ceec311	0.02914575
214	0x3dbb0478	0.09131712
215	0xb914fc43	-0.00014208355
216	0x3e098390	0.13429093
217	0x3d2c0021	0.04199231
218	0x3d33bd4d	0.043881703
219	0x3d35d799	0.044395063
220	0xbded7e56	-0.11596362
221	0x3cdc718f	0.026909618
222	0x3ce9eb11	0.028554471
223	0xbc1cf8e2	-0.009580823
224	0x3e0a6f06	0.13518915
225	0xbe208f3c	-0.1567964
226	0xbddf8679	-0.109143205
227	0xbd4bf33c	-0.049792513
228	0x3e296d65	0.16545637
229	0xbded2e0a	-0.11581047
230	0x3e20700e	0.15667745
231	0xbdae0d5d	-0.084986426
232	0xbd8bfa47	-0.06834846
233	0x3d981ec9	0.07427747
234	0xbdde8dc6	-0.10866885
235	0x3e28f042	0.16497901
236	0xbbdc3255	-0.0067198672
237	0xbdecfd05	-0.11571697
238	0xbd95d037	-0.073151045
239	0x3d47ff22	0.048827298
240	0x3db793b4	0.08963719
241	0xbe2b20d1	-0.16711737
242	0x3c3b3518	0.011426233
243	0x3cae1620	0.021250784
244	0xbbdd0038	-0.006744411
245	0xbd84408b	-0.06457623
246	0xbd8ddc13	-0.069267415
247	0x3e2e5ef9	0.17028417
248	0xbde62663	-0.112377904
249	0xbc8608ac	-0.016361557
250	0x3bc560ab	0.0060234866
251	0xbd40e34a	-0.04709176
252	0x3b4273a3	0.0029670976
253	0xbcdc662a	-0.026904184
254	0x3e1e6686	0.15468797
255	0xbd733334	-0.059375003

sequential_1/activation_1/Relu;sequential_1/conv2d_1/add;sequential_1/conv2d_1/convolution; f4 [16]
0	0x3b2fb7e0	0.002681248
1	0xbb569eca	-0.0032748454
2	0x3bcea5d8	0.006306391
3	0x3a78a2e1	0.000948472
4	0x3be4512e	0.006967685
5	0x3ac7f396	0.0015255089
6	0xbb351497	-0.002763068
7	0xbb2b7ea8	-0.0026168022
8	0xba8a5dd7	-0.0010556531
9	0xb979c9b3	-0.0002382163
10	0xbbb2a837	-0.0054521817
11	0xbaf3f48d	-0.001861231
12	0xba9fa6c6	-0.001218044
13	0xbb12b025	-0.0022382822
14	0xba77e540	-0.0009456463
15	0x3ad45c47	0.0016201817
