new_version/liveness_model.tflite (tflite, 599228 bytes, 20 tensors)

arith.constant f4 [32]
0	0xbb8c4357	-0.0042804885
1	0x3bc89729	0.0061215353
2	0x3b8816e3	0.004153119
3	0x3735b915	1.08315335e-05
4	0x3b09cded	0.0021027282
5	0x3b670678	0.0035251658
6	0x3ab1a91e	0.0013554429
7	0x382de6d7	4.14614e-05
8	0x3af7b90e	0.0018899755
9	0x3c24b6b4	0.010053325
10	0xba9cb252	-0.0011954999
11	0xba86b37e	-0.0010276882
12	0x3b19402c	0.0023384197
13	0x3a9ba1c8	0.0011873776
14	0x3b01556c	0.0019734753
15	0xbac18f7b	-0.0014767492
16	0xbb135873	-0.002248314
17	0x3abd2e8e	0.001443343
18	0xbbc528a8	-0.0060168095
19	0xbba17823	-0.0049276515
20	0xbb9d400b	-0.0047988943
21	0x3b87783c	0.004134206
22	0x3b95fb85	0.0045771026
23	0x385054e1	4.9670114e-05
24	0x3b69787d	0.0035624795
25	0x3b3e0e03	0.002900005
26	0x3ba6fd1f	0.0050960924
27	0x3b4e8fbc	0.0031518778
28	0x3b1b321e	0.0023680995
29	0x3b42c974	0.0029722126
30	0x3b2a3cf4	0.0025976272
31	0x3bd459ee	0.006480447

arith.constant1 f4 [32]
0	0x3a36465d	0.0006953234
1	0x3a9be9c7	0.0011895233
2	0xbc3ea4a3	-0.011635932
3	0x390408de	0.00012591804
4	0x3b3e200f	0.0029010808
5	0x3b0d3ddf	0.002155177
6	0x39d1bd1e	0.0004000449
7	0x3b9b0146	0.0047303764
8	0x3b59f3c8	0.0033256877
9	0x3b193c50	0.0023381896
10	0x3ac8ced5	0.001532043
11	0xba0c384a	-0.0005348964
12	0x3b4cd43d	0.0031254434
13	0xba07cda8	-0.00051804865
14	0x3a6b38a5	0.0008972979
15	0x3b611890	0.0034346916
16	0x3bd167b5	0.0063905367
17	0x3bb787e9	0.0056009186
18	0x3a77c588	0.00094517367
19	0x3bb655e0	0.0055644363
20	0x3bf2836e	0.0074009215
21	0x3bf9e07f	0.007625639
22	0x3bf2a6bf	0.0074051316
23	0x3b9f4133	0.0048600673
24	0x3b4b487a	0.0031018541
25	0x3b943236	0.004522587
26	0x3b57edfb	0.0032948244
27	0x3ab1fc91	0.0013579299
28	0x3ae01308	0.0017095516
29	0x3b17f24a	0.0023185187
30	0x3b29703a	0.0025854246
31	0x3b8c6e46	0.0042856066

arith.constant2 f4 [16]
0	0x3b70be43	0.0036734499
1	0x3c179bfc	0.009253498
2	0xbc11659d	-0.008874324
3	0x3b9edfe7	0.0048484686
4	0xbc3f44f7	-0.011674157
5	0x3a64af42	0.0008723625
6	0xbc37112f	-0.0111735305
7	0x3be3060b	0.0069282106
8	0x3b4dd360	0.0031406507
9	0xbc4b66af	-0.012414618
10	0x3b7c562e	0.0038503516
11	0x3aee67b4	0.0018188865
12	0xbc69a4df	-0.0142605
13	0xbb6051aa	-0.0034228363
14	0x39a600fe	0.00031662727
15	0x3a56adfa	0.00081893767

arith.constant3 f4 [2, 64]
0	0xbdd4078a	-0.103530005
1	0xbd347165	-0.044053454
2	0xbe07f945	-0.13278683
3	0x3dc5aea7	0.09652453
4	0xbd7a35a5	-0.061086316
5	0x39f58348	0.00046827854
6	0xbd8e6ee5	-0.06954745
7	0xbd3b9787	-0.045798805
8	0xbc2ac199	-0.010422134
9	0xc0a4d596	-5.1510725
10	0x3deb21f3	0.11481085
11	0x3e00a804	0.12564093
12	0x3f965947	1.1745995
13	0x3d89195f	0.06694292
14	0x3db1fd79	0.08690924
15	0xbeeefb5c	-0.46676147
16	0xbcf5925a	-0.029977012
17	0xbdb31423	-0.08744075
18	0x3dfe7cf6	0.12426178
19	0x3d874bca	0.066062525
20	0xbcab2f40	-0.020896554
21	0xbd1dbc04	-0.038509384
22	0xbb3a92ce	-0.002846885
23	0x3c3b1715	0.011419077
24	0xbc09f842	-0.008421006
25	0x3cac4b58	0.02103202
26	0x3d790f0e	0.060805373
27	0x4013b615	2.3079884
28	0x3d65cecb	0.056105416
29	0x3e9a841c	0.30178916
30	0x3ccd6a0a	0.025074977
31	0xbcc30be9	-0.02380939
32	0x3c443c20	0.011977226
33	0xbd83313f	-0.06405877
34	0x3dc58820	0.096451044
35	0x3e91352e	0.28360885
36	0xbcf415b8	-0.029795513
37	0xbf919705	-1.1374213
38	0x3e93c36c	0.28860033
39	0xbd36b1f6	-0.04460331
40	0xbfe3cb97	-1.7796506
41	0xbdb18be0	-0.08669257
42	0x3d6c2d0b	0.057660144
43	0x3dc73186	0.09726243
44	0x3d9471f8	0.072483
45	0xbd927e31	-0.07152975
46	0xbd855574	-0.065104395
47	0x3d8257e0	0.06364417
48	0x3ddb8a46	0.10719733
49	0xbd42273b	-0.047400694
50	0x3daa8b6a	0.08327372
51	0xbf985657	-1.1901349
52	0xbd4e5433	-0.050373267
53	0x3e44cb6c	0.19218224
54	0xbfa6ff11	-1.304659
55	0xbece102d	-0.40246716
56	0x3f015083	0.50513476
57	0x3d0b9a27	0.034082558
58	0x4007fda5	2.1248562
59	0x3db581e0	0.08862662
60	0x3da89f05	0.082334556
61	0xbd976369	-0.07392008
62	0xbb669472	-0.0035183695
63	0xbd1c4437	-0.038150992
64	0x3dcd754e	0.1003214
65	0x3c9a299c	0.018818669
66	0xbcdbb344	-0.026818879
67	0x3da9913a	0.08279653
68	0x3d273c9f	0.040829297
69	0xbdadd14f	-0.08487188
70	0xbc3e82e3	-0.0116278855
71	0x3bc02849	0.0058641774
72	0x3d07c26c	0.0331444
73	0xc07939f9	-3.8941634
74	0xbd45b08a	-0.048264064
75	0xbd7172d4	-0.0589474
76	0xbf919c58	-1.1375837
77	0x3d7d7554	0.06187947
78	0xbda94a3c	-0.08266112
79	0x3c9ce1ef	0.019150702
80	0x3d3d04e0	0.046147227
81	0x3d8cd64e	0.06876813
82	0xbd988c5a	-0.07448645
83	0xbdd12428	-0.102119744
84	0x3d2381ec	0.039918825
85	0x3cbcc812	0.02304462
86	0xbdfd5474	-0.12369624
87	0x3ced41b1	0.028961988
88	0xbdfd2d91	-0.12362207
89	0xbc9ec530	-0.019381136
90	0xbde1f396	-0.110327885
91	0x3fa224d4	1.2667489
92	0xbdfa631b	-0.12225934
93	0xbe81c8ba	-0.25348455
94	0x3d6b844d	0.05749922
95	0x3d2a9e9f	0.04165518
96	0xbd5bd57e	-0.0536704
97	0xbdb8abc1	-0.090171345
98	0x3d04a0ae	0.0323798
99	0x3e90bade	0.28267568
100	0xbddf2d22	-0.1089728
101	0x3f61201f	0.8793964
102	0x3cc47524	0.023981638
103	0x3da91a35	0.08256952
104	0xbff8747f	-1.9410552
105	0x3cbe4feb	0.023231467
106	0xbdb1e1d1	-0.08685649
107	0x3ba24c0d	0.0049529136
108	0x3dacafbd	0.08431957
109	0x3d4a460e	0.049383216
110	0x3c0287d8	0.007966958
111	0xbd0f5807	-0.03499606
112	0xbe0a891e	-0.13528869
113	0xbd4e024d	-0.050295163
114	0x3cd21971	0.025646897
115	0x3d49cc16	0.049266897
116	0xbc6123c6	-0.013741439
117	0xbdc05ec6	-0.093930766
118	0xbfe7e5f6	-1.8117054
119	0xbf2f232b	-0.6841304
120	0xbf03c33c	-0.5146978
121	0xbda6da6a	-0.08147128
122	0x409cf57e	4.9049673
123	0xbdaf42b2	-0.08557643
124	0xbdb58b31	-0.08864439
125	0x3980eb97	0.0002458959
126	0xbd4b9c81	-0.0497098
127	0x3d11a105	0.03555395

arith.constant4 f4 [2]
0	0x3dd00a70	0.10158241
1	0x3f5b0221	0.85550123

arith.constant5 f4 [32, 3, 3, 32]
0	0x3c16f6ce	0.009214116
1	0x3d69a41d	0.057041276
2	0x3cfeff54	0.03112761
3	0xbd58dcbf	-0.052944895
4	0x3d2f3523	0.042775284
5	0xbd753525	-0.059865136
6	0xbd60aa2d	-0.054849792
7	0xbcff376f	-0.031154362
8	0xbd21ef34	-0.039534763
9	0xbd219f18	-0.039458364
10	0xbd86df84	-0.06585601
11	0xbbd5a2df	-0.00651966
12	0xbdba2d17	-0.090906315
13	0x3d53083f	0.051521536
14	0xbd40206b	-0.046905916
15	0x3d8285d5	0.06373183
16	0x3da44e42	0.08022739
17	0xbda4eabb	-0.08052584
18	0x3dc8ae3f	0.0979886
19	0x3b7abc12	0.0038259071
20	0xbd05f0e9	-0.032700453
21	0x3c9d9b62	0.019239131
22	0x3da14068	0.07873613
23	0x3c9689b5	0.01837621
24	0x3db9db82	0.09075071
25	0xbcc6bb63	-0.024259275
26	0x3d8a7001	0.06759644
27	0xbbd187c8	-0.00639436
28	0xbd179d2d	-0.03701513
29	0xbd1fdc44	-0.03902842
30	0x3d800be1	0.06252266
31	0x3db965a1	0.09052587
32	0x3d0cec05	0.034404773
33	0xbca21b12	-0.019788299
34	0xbd27041a	-0.040775396
35	0x3d291dc8	0.041288167
36	0xbd85f4c1	-0.06540824
37	0x3d5be181	0.053681854
38	0xbd8ed9f5	-0.06975166
39	0x3dcb6ff4	0.09933463
40	0x3d9fbc62	0.07799603
41	0x3d486c2e	0.048931293
42	0xbd044aca	-0.032297887
43	0xbd99d340	-0.07510996
44	0x3cf2433c	0.029573075
45	0x3d22d5c9	0.039754663
46	0xbc6149aa	-0.013750473
47	0x3d030963	0.031991374
48	0x3d9b1c7b	0.075737916
49	0x3da052f6	0.078283235
50	0x3d391ac8	0.045191556
51	0xbd43b065	-0.047775645
52	0x3db88403	0.09009554
53	0xbdb38225	-0.087650575
54	0x3aec4c50	0.0018028114
55	0x3d9ed7c5	0.077559985
56	0x3d9d6022	0.076843515
57	0x3c5e1b70	0.013556346
58	0x3d44354b	0.047902387
59	0xbca43763	-0.020045942
60	0xbd9bbe55	-0.07604662
61	0x3d9c7c65	0.07640914
62	0x3d42256e	0.047398977
63	0xbd2dcada	-0.042429782
64	0xbc12a854	-0.008951265
65	0xbd8fd890	-0.07023728
66	0x3dc95f91	0.09832681
67	0xbd8be513	-0.06830802
68	0x3da9c4cd	0.0828949
69	0xbdc53151	-0.09628547
70	0x3bb696c6	0.005572173
71	0xbc8739d1	-0.016507061
72	0x3b76ca28	0.0037657116
73	0xbd94004d	-0.0722662
74	0x3daadbc0	0.08342695
75	0xbdaade7b	-0.08343216
76	0x3d12db45	0.035853643
77	0x3dd2b3f3	0.10288229
78	0x3b941708	0.004519347
79	0x3d8e45c2	0.06946899
80	0xbd5a8b65	-0.053355593
81	0x3d28ab87	0.041179206
82	0xbd92494f	-0.07142889
83	0x3dc11286	0.09427361
84	0xbda1d058	-0.079010665
85	0xbdbaa74e	-0.09113942
86	0x3d912cad	0.07088599
87	0xbd582b11	-0.052775446
88	0x3d145bd7	0.036220398
89	0x3d3073df	0.043079253
90	0x3d4e0fa3	0.05030788
91	0x3cc7f0e2	0.024406854
92	0x3d49760f	0.049184855
93	0xbd47c07b	-0.048767548
94	0xbb5f345c	-0.0034058308
95	0x3dcecd1f	0.100977175
96	0xbd99428c	-0.07483396
97	0x3d1e9d30	0.038724124
98	0xba8d17df	-0.001076456
99	0xbd489dd4	-0.04897864
100	0x3ca1cf1b	0.019752076
101	0x3d83d70a	0.064375
102	0xbdcb0d52	-0.0991465
103	0x3cf53e04	0.029936798
104	0x3d73d7f0	0.059532106
105	0xbcff07f6	-0.031131726
106	0x3b39db5d	0.002835951
107	0x3d3c8790	0.04602772
108	0xbd01cb71	-0.031688157
109	0xbd78e3be	-0.060764067
110	0xbd546bdc	-0.051860675
111	0xbcf8f3cc	-0.030389689
112	0xbd40dceb	-0.047085684
113	0xbdbb10d1	-0.09134067
114	0x3d8eed31	0.069788344
115	0xbd4a3b3f	-0.049372908
116	0xbb5caebe	-0.003367349
117	0x3d364891	0.0445028
118	0x3d6b442c	0.05743806
119	0x3cb9929d	0.022652918
120	0x3d42e395	0.04758032
121	0x3d384a9c	0.044993028
122	0x3c937053	0.017997896
123	0x3db5d0b6	0.08877699
124	0x3dc12bc8	0.09432179
125	0x3d8090cc	0.06277618
126	0x3d167b23	0.036738526
127	0x3dbb70b0	0.09152353
128	0xbdc1b497	-0.09458273
129	0x3d520d5e	0.05128228
130	0xbdd35c8c	-0.10320386
131	0xbcf98b21	-0.03046185
132	0x3db6eaed	0.08931527
133	0xbbf02089	-0.0073280972
134	0x3dcf1fee	0.10113512
135	0xbc53553c	-0.012898739
136	0xbd8975a6	-0.06711893
137	0x3dac9196	0.08426206
138	0xbccc5c27	-0.024946285
139	0x3b47dbc2	0.0030495976
140	0xbd70b1b9	-0.05876324
141	0xbd51e3d2	-0.051242657
142	0x3d6768e2	0.05649651
143	0x3d5dc3dc	0.054141864
144	0xbd78440d	-0.060611773
145	0xbcb78b9e	-0.022405442
146	0xbd81ec16	-0.06343858
147	0xbc1a1bea	-0.009406069
148	0x3d84460f	0.06458675
149	0x3d50e693	0.051001143
150	0xbdc268e1	-0.0949266
151	0x3da0805c	0.078369826
152	0x3d62cfbd	0.055373896
153	0xbd5c81c4	-0.05383469
154	0x3af8568d	0.0018946693
155	0xbd027052	-0.0318454
156	0x3d097dc7	0.033567216
157	0xbd65d434	-0.056110576
158	0xbd0d5e17	-0.03451356
159	0xbd1d980d	-0.038475085
160	0xbd5aef1b	-0.053450685
161	0x3d54db27	0.051966812
162	0x3d3af96d	0.045648027
163	0x3cc8f851	0.024532469
164	0x3dce7755	0.100813545
165	0xbbf97ebb	-0.0076139844
166	0xbd89c068	-0.06726152
167	0x3c9515f2	0.01819894
168	0xbd344d59	-0.044019077
169	0x3d205f12	0.039153166
170	0xbcf2149a	-0.02955084
171	0xbd688ee3	-0.056776892
172	0xbc4734c0	-0.012158573
173	0x3ca9ab2d	0.020711506
174	0x3dbe1893	0.09282031
175	0xbd541e03	-0.051786434
176	0x3d1196a9	0.03554407
177	0xbd05bc71	-0.032650415
178	0x3dc34883	0.09535315
179	0x3ca6a032	0.020340059
180	0x3b8c5c1c	0.004283441
181	0x3d35299a	0.044229127
182	0xbdc78950	-0.09742987
183	0x3d0acba9	0.03388563
184	0x3d12f827	0.035881188
185	0x3dda3f6f	0.1065663
186	0xbd87b316	-0.06625955
187	0x3c033a7f	0.008009552
188	0xbd5beaf2	-0.05369086
189	0xbd91736d	-0.07102094
190	0x3d79f166	0.06102123
191	0xbd807231	-0.0627178
192	0x3cf62939	0.030048953
193	0xbdbf48a9	-0.09340031
194	0xbdc13a07	-0.09434896
195	0xbd6b67c3	-0.057472
196	0x3d07dba2	0.033168443
197	0xbb8366ba	-0.0040100487
198	0x3a6264a0	0.000863621
199	0x3dd1b58a	0.10239704
200	0x3ab42132	0.0013742803
201	0xbd742dc9	-0.059613977
202	0xbdcd2c79	-0.10018248
203	0xbca0dec3	-0.019637471
204	0x3c6f5d46	0.01460964
205	0x3dcbb393	0.099463604
206	0xbd6f8666	-0.05847778
207	0xbd2ebbe3	-0.04265965
208	0xbd886eda	-0.06661768
209	0x3d70906b	0.058731478
210	0xbd934b69	-0.07192118
211	0x3da07d72	0.07836427
212	0x3ca6423f	0.02029526
213	0x3dcbd9cb	0.0995365
214	0x3daef630	0.0854305
215	0xbd0600e1	-0.032715682
216	0xbcedad41	-0.029013278
217	0x3d5969bf	0.053079363
218	0xbd16acca	-0.03678588
219	0x3ce896f2	0.028392289
220	0x3c6e0d9d	0.014529613
221	0xbce2dbe1	-0.027692737
222	0xbd8c22e3	-0.068425916
223	0xbc3c40d1	-0.011490063
224	0x3cd097b0	0.025462955
225	0x3d8d0816	0.06886308
226	0xbd238a67	-0.039926913
227	0xbd854565	-0.065073766
228	0xbc1dd176	-0.009632459
229	0xbd8c9323	-0.068640016
230	0x3db424c3	0.08796074
231	0x3d87235a	0.0659854
232	0x3d4a2f22	0.049361356
233	0xbd424ea4	-0.04743828
234	0x3bbb545b	0.005716843
235	0x3d003c89	0.03130773
236	0xbc85c623	-0.01632983
237	0xbdb366c3	-0.087598346
238	0xbc492623	-0.012277159
239	0xbccad068	-0.024757579
240	0xbc274a20	-0.010210544
241	0xbd29b915	-0.041436274
242	0x3da0f4c3	0.078591846
243	0xbba99846	-0.005175623
244	0xbd79cf38	-0.060988635
245	0xbd6a8604	-0.057256714
246	0xbda8b05e	-0.08236764
247	0xbd06e02d	-0.032928634
248	0x3d3ee5e0	0.046605945
249	0xbca4707b	-0.020073166
250	0x3db8669a	0.09003945
251	0x3c49266c	0.012277227
252	0x3cd95f07	0.02653457
253	0xbb9d17dd	-0.0047941045
254	0xbd265fe0	-0.040618777
255	0x3d5963bf	0.05307364

arith.constant6 f4 [32, 3, 3, 16]
0	0xbd1eafe7	-0.038741972
1	0x3d029a82	0.03188563
2	0x3b207dce	0.0024489048
3	0xbd33cc8a	-0.043896236
4	0xbdb620b8	-0.08892959
5	0xbd53a3b7	-0.051669803
6	0xbc8e7cb2	-0.017393444
7	0xbca87ec1	-0.020568253
8	0x3d89d64f	0.06730329
9	0xbd086793	-0.0333019
10	0xbd5f388c	-0.054497287
11	0x3da65fb4	0.08123723
12	0xbdb8f6f2	-0.09031476
13	0x3ce823d8	0.028337404
14	0x398635d4	0.00025598577
15	0xbd677ebf	-0.05651736
16	0x3da20f1f	0.0791304
17	0x3cf1e919	0.029530095
18	0xbdedf0ec	-0.11618218
19	0xbd2ee876	-0.04270216
20	0xbd360147	-0.044434812
21	0xbd95e7f2	-0.07319631
22	0x3d3ee243	0.0466025
23	0xbc805879	-0.015667187
24	0x3de169de	0.11006521
25	0x3d9e7ede	0.07739042
26	0x3d1b0c65	0.037853617
27	0x3dd7c6d6	0.10535972
28	0x3d14ec6e	0.03635829
29	0xbdc6411f	-0.096803896
30	0x3d01c347	0.03168037
31	0xbdc87f0a	-0.09789856
32	0xbdbee7ef	-0.093215816
33	0x3c700b6f	0.0146511635
34	0xbba8f9b9	-0.0051567224
35	0xbdd3d095	-0.10342518
36	0xbd436c23	-0.04771055
37	0x3df0ecb4	0.117638975
38	0xba0a1aee	-0.0005268295
39	0x3d5b14f8	0.053486794
40	0xbd32a151	-0.043610875
41	0x3c49fcc0	0.012328327
42	0xbd844e41	-0.06460238
43	0x3cc63fbb	0.02420031
44	0xbb5db524	-0.0033829892
45	0x3dbf628c	0.09344968
46	0x3c912216	0.017716449
47	0xbddbdcfb	-0.10735508
48	0xbd7d21d2	-0.06179983
49	0x3bfe0b2b	0.007752796
50	0x3db46387	0.08808046
51	0x3deaf3c2	0.11472274
52	0xbdbf3510	-0.09336293
53	0x3cdc426b	0.02688714
54	0xbcf34ea7	-0.02970059
55	0xbdf14fa6	-0.1178277
56	0xbd7e846e	-0.062138014
57	0x3ca8cf87	0.02060677
58	0x3b6c7790	0.0036082007
59	0xbd9b2bc2	-0.075767055
60	0x3bd76306	0.006573084
61	0xbca09ac1	-0.019605042
62	0x3ce21614	0.027598418
63	0xbcdb50b6	-0.026771884
64	0xbda5ae09	-0.08089835
65	0x3dc54efe	0.09634207
66	0x3de52395	0.11188427
67	0xbdcf42be	-0.10120152
68	0x3dcfa13f	0.10138177
69	0xbb8206ef	-0.0039681117
70	0x3aab3efb	0.0013065034
71	0xbcf31a70	-0.029675692
72	0xbda2a168	-0.07940942
73	0xbdb8f51b	-0.09031125
74	0x3d9d1633	0.0767025
75	0x3d55a6ba	0.052160956
76	0x3cb5c69d	0.022189433
77	0xbdbfa8d8	-0.09358376
78	0xbc91e263	-0.017808145
79	0x3df3eee9	0.11910803
80	0xbc643626	-0.013928926
81	0x3c2dfd92	0.010619538
82	0xbd8da334	-0.06915894
83	0xbdfa5803	-0.12223818
84	0x3d86eae5	0.06587771
85	0x3d0d0434	0.034427837
86	0x3cf3e992	0.029774461
87	0x3dce6214	0.10077301
88	0x3c8bc999	0.017063903
89	0xbd387303	-0.04503156
90	0xbd195201	-0.03743172
91	0xbd654843	-0.055977117
92	0xbde9ed51	-0.11422218
93	0xbd856c8d	-0.06514845
94	0x3d8a59ae	0.06755386
95	0xbdbb84e8	-0.09156209
96	0x3dd43b71	0.103629
97	0xbd931c48	-0.071831286
98	0xbd078d2a	-0.03309361
99	0x3d1fc902	0.039010055
100	0x3de44b68	0.11147195
101	0x3dcea51d	0.100900866
102	0x3d8b29ea	0.06795104
103	0xbce724c6	-0.028215777
104	0x3d8411f6	0.06448738
105	0xbd65170a	-0.055930175
106	0x3c760a56	0.015017113
107	0xbbe31a50	-0.006930627
108	0xbdebe13c	-0.115175694
109	0x3d70eeee	0.05882161
110	0xbd440564	-0.047856703
111	0x3c69b0e1	0.014263363
112	0xb991055a	-0.00027660542
113	0x3cd88656	0.026431244
114	0xbd47ef40	-0.04881215
115	0xbbc59814	-0.006030092
116	0xbdcbcad9	-0.099507995
117	0xbc9559e2	-0.018231336
118	0xbc00c259	-0.007858836
119	0x3d95396d	0.07286344
120	0x3b07bca9	0.0020711815
121	0xbd2cc398	-0.04217872
122	0x3d84b87c	0.064805
123	0xbc8db42d	-0.017297829
124	0x3d39ae09	0.04533199
125	0xbcd44236	-0.025910478
126	0x3d965c60	0.07341838
127	0xbda64acb	-0.081197344
128	0x3db7607b	0.08953949
129	0x3dd4c047	0.103882365
130	0xbde69414	-0.112587124
131	0x3db0629d	0.08612559
132	0x3d19f543	0.037587415
133	0xbdc76164	-0.09735373
134	0x3d57a866	0.05265083
135	0xbd9ebca2	-0.077508226
136	0xbd1b3a9d	-0.037897695
137	0x3ded4068	0.1158455
138	0x3dc0aad1	0.09407581
139	0xbda08443	-0.07837727
140	0xbd9d9d65	-0.07696036
141	0xbd3832d3	-0.044970345
142	0x3cc0e96f	0.02354881
143	0x3dcdd508	0.10050398
144	0xbd9ca5c0	-0.07648802
145	0x3c0b6ce8	0.008509852
146	0x3de48266	0.11157684
147	0xbdbd5ec3	-0.0924659
148	0xbc42b8d3	-0.011884886
149	0x3ddf8086	0.10913186
150	0xbc772adf	-0.015085905
151	0x3d0d86fb	0.034552556
152	0x3de1c797	0.11024397
153	0x3daa8e09	0.08327872
154	0xbda3ccbd	-0.07998035
155	0x3dd1b979	0.10240454
156	0x3dc9b759	0.09849424
157	0x3dcc02f0	0.09961498
158	0xbc212aef	-0.009836896
159	0x3d428d0a	0.047497787
160	0x3d1a8cd7	0.03773197
161	0xbd055b64	-0.03255786
162	0x3b3402f8	0.002746759
163	0xbc0aa895	-0.008463045
164	0xbbd9a030	-0.0066414103
165	0xbd79fe6d	-0.061033655
166	0xbd4f1a4b	-0.050562184
167	0x3de0ff31	0.10986174
168	0xbdcd99fe	-0.10039137
169	0x3caee543	0.021349555
170	0x3d9b8179	0.07593054
171	0x3dae9cba	0.08525987
172	0xbde6ba7a	-0.11266036
173	0xbd20caa3	-0.03925575
174	0x3d9e73c2	0.07736923
175	0x3d97c0e6	0.07409839
176	0x3a03e03f	0.00050306687
177	0xbdd407bd	-0.103530385
178	0xbbd571f4	-0.0065138284
179	0x3d1358dd	0.03597342
180	0x3d327900	0.043572426
181	0x3d7bb6b7	0.061453547
182	0xbd278deb	-0.040906828
183	0xba381b24	-0.0007023087
184	0xbd0515c9	-0.03249148
185	0x3d53ce8b	0.051710647
186	0xbc9959d5	-0.018719593
187	0x3d9499d9	0.072559066
188	0x3dce64f9	0.10077853
189	0xbdc5e1b1	-0.09662188
190	0x3dcc0ee3	0.09963777
191	0x3de0e68a	0.10981472
192	0x3c8cf0fa	0.01720475
193	0x3dc1e183	0.09466841
194	0xbd40424b	-0.046938222
195	0x3d52b9bf	0.051446673
196	0x3de17097	0.11007803
197	0xbc890fbd	-0.016731137
198	0xbd096756	-0.033545814
199	0xbda7b74f	-0.0818926
200	0xbcf596ed	-0.029979194
201	0xbd268871	-0.040657464
202	0xba376089	-0.0006995281
203	0x3d9f0d32	0.07766189
204	0x3c7c9874	0.015417207
205	0xbc89c350	-0.016816765
206	0x3dc8250f	0.09772693
207	0x3be67a53	0.007033625
208	0xbd690b65	-0.056895632
209	0xbd703802	-0.058647163
210	0xbd8cc796	-0.068740055
211	0xbd51d3b6	-0.051227294
212	0x3de97183	0.11398604
213	0x3d663618	0.05620393
214	0xbd441de4	-0.04788007
215	0xbd43d1c9	-0.04780749
216	0xbc852f26	-0.016257834
217	0x3dc5425e	0.09631799
218	0xbcb450e8	-0.022011235
219	0xbdcdc13a	-0.10046621
220	0x3d86e122	0.065859094
221	0x3d4d82aa	0.05017344
222	0xbdbb7ce4	-0.0915468
223	0xbded1206	-0.11575703
224	0xbd073a84	-0.03301479
225	0x3d796b1c	0.060893163
226	0x3d87c681	0.066296585
227	0xbd77f3a7	-0.0605351
228	0xbc250076	-0.010070911
229	0xbd6cc5e5	-0.057805914
230	0xbbec868a	-0.0072181867
231	0x3c8b0536	0.016970258
232	0xbd8d4e6a	-0.06899722
233	0x3d77ac6b	0.060467165
234	0x3cf5da09	0.030011194
235	0x3cbd1a4d	0.02308383
236	0x3d8d3f95	0.06896893
237	0x3a723b9f	0.00092404516
238	0x3db4c8aa	0.08827336
239	0xbdc48e9e	-0.095975146
240	0x3d61e732	0.055152126
241	0x3d025227	0.031816628
242	0xbd445884	-0.047935978
243	0x3dde7115	0.108614124
244	0x3df19da5	0.117976464
245	0x3d8c91ca	0.068637446
246	0x3cbe5c8f	0.023237495
247	0xbd1f303b	-0.038864356
248	0xbd34a897	-0.044106092
249	0xbd92a5d6	-0.07160537
250	0x3d3e3958	0.046441406
251	0x3d02968f	0.031881865
252	0xbd0a5ca2	-0.033779748
253	0xbc6d0d4f	-0.014468505
254	0xbd177973	-0.036981057
255	0x3d67b060	0.05656469

arith.constant7 f4 [16, 3, 3, 16]
0	0x3b9453fd	0.0045266137
1	0xbdc65d35	-0.096857466
2	0x3df1cc46	0.1180654
3	0xbd7c9014	-0.06166084
4	0x3df78c80	0.12087345
5	0xbdd1140c	-0.10208902
6	0xbc633789	-0.013868221
7	0xbe0329ca	-0.1280891
8	0xbd68cf4b	-0.056838315
9	0xbcb48af7	-0.02203892
10	0xbde2a07c	-0.11065766
11	0xbda5faf6	-0.081045076
12	0x3c960804	0.018314369
13	0xbd2f2376	-0.042758428
14	0x3d0d6d0c	0.034527823
15	0x3c0ee17b	0.008720751
16	0xbd2258ff	-0.039635655
17	0xbdd85d9c	-0.105647296
18	0xbd98da6a	-0.07463534
19	0xbdba9fc1	-0.09112502
20	0xbd8123eb	-0.06305679
21	0x3e069bca	0.13145366
22	0x3e13154f	0.14363597
23	0x3df38d0d	0.11892138
24	0x390d1ec8	0.00013458275
25	0x3ce40880	0.027836084
26	0x3d49a19f	0.0492264
27	0x3ab721b7	0.001397184
28	0xbce06994	-0.027394094
29	0xbd728005	-0.05920412
30	0xbd4adfb7	-0.049529757
31	0x3c0625be	0.008187709
32	0xbce26f88	-0.027641073
33	0xbe10d305	-0.14142998
34	0xbd10553f	-0.035237547
35	0xbc743b0a	-0.014906654
36	0x3d9b0522	0.075693384
37	0xbcd043b8	-0.025422916
38	0xbcdd3c4f	-0.027006296
39	0x3cbac5a7	0.022799326
40	0x3dbd0722	0.09229876
41	0xbbe5902d	-0.0070057125
42	0xbde603c6	-0.112311885
43	0xbca3cd8d	-0.019995475
44	0x3dcdb553	0.100443505
45	0x3e14ee80	0.14544106
46	0x3d54850d	0.0518847
47	0xbd680e3e	-0.056654207
48	0x3dd45a56	0.10368793
49	0x3e0bd698	0.1365608
50	0x3e0d2335	0.13782962
51	0x3db31df7	0.0874595
52	0xbb54bd51	-0.0032461474
53	0xbdd2e1f3	-0.10297003
54	0x3dbe25e9	0.092845745
55	0x3db288b0	0.08717477
56	0x3dc42a0c	0.09578332
57	0x3de4ed1d	0.11178038
58	0xbcc49d99	-0.02400093
59	0x3d3debb6	0.04636737
60	0x3dbef07e	0.09323214
61	0x3d01b001	0.03166199
62	0x3d8dca57	0.06923359
63	0x3b3c8348	0.0028764773
64	0xbd2ea7da	-0.042640544
65	0xbe098ac7	-0.13431846
66	0xbded23d1	-0.11579097
67	0x3d5fc5fe	0.05463218
68	0x3e08691a	0.13321343
69	0x3d153f3f	0.03643727
70	0x3dd0bbaf	0.10192048
71	0x3dbf3a51	0.09337295
72	0xbd1ad75a	-0.03780303
73	0xbd4c58c6	-0.04988935
74	0xbd875f0a	-0.06609924
75	0xbcc7ce03	-0.024390226
76	0x3d4aaf94	0.04948385
77	0x3cb8f30f	0.022576837
78	0x3d78df6c	0.060759947
79	0x3e060d3c	0.13090986
80	0xbd2c2289	-0.042025123
81	0x3e070073	0.13183765
82	0xbe0bf894	-0.13669044
83	0x3dbcd16b	0.09219631
84	0xbda97281	-0.08273793
85	0xbdd93cf5	-0.1060733
86	0x3d91e37c	0.07123467
87	0xb9c737cc	-0.0003799781
88	0x3be3d302	0.0069526443
89	0x3de5d534	0.11222306
90	0x3d9a4f05	0.07534603
91	0xbd203c5d	-0.039120067
92	0xbe178708	-0.14797604
93	0xbdaddb38	-0.08489078
94	0xbdc9358a	-0.09824665
95	0x3d4a13d4	0.049335316
96	0x3db25526	0.08707647
97	0x3dcdecda	0.100549415
98	0x3e178fb9	0.1480092
99	0x3ce2c8af	0.027683584
100	0x3d9589df	0.073016874
101	0x3d2a216d	0.041535784
102	0xbcb343f4	-0.021882989
103	0xbd784e0a	-0.0606213
104	0x3e0d73c2	0.1381369
105	0xbe019dfb	-0.12657921
106	0xbcffa987	-0.031208767
107	0x3e12fa7e	0.14353368
108	0xbdb57750	-0.08860648
109	0xbc9c7291	-0.019097598
110	0x3c665980	0.014059424
111	0xb980e801	-0.0002458692
112	0x3dbd0932	0.092302695
113	0xbce49230	-0.027901739
114	0x3d8f4467	0.069954686
115	0xbcf9769b	-0.030452063
116	0x3d9ccc85	0.076561965
117	0xbd86ec7b	-0.06588074
118	0x3c828c80	0.015936136
119	0xbd95c3c3	-0.07312729
120	0x3c4522c1	0.012032212
121	0xbd8b0609	-0.067882605
122	0x3d1573c9	0.036487374
123	0xbd2fb856	-0.042900406
124	0xbdf6017e	-0.12012003
125	0x3daeea4c	0.08540782
126	0xbdb2f380	-0.0873785
127	0x3d6708f9	0.05640504
128	0xbdd43759	-0.10362119
129	0xbdbec848	-0.09315544
130	0x3d9e9691	0.07743562
131	0xbd8ff2e0	-0.070287466
132	0xbc908bb5	-0.017644743
133	0xbe0a7e4f	-0.13524745
134	0xbbd79dd1	-0.0065800925
135	0x3e0d5acf	0.13804172
136	0x3db66ef1	0.08907879
137	0x3e07fc27	0.13279782
138	0x3dceecd0	0.10103762
139	0xbca2d031	-0.019874664
140	0x3d8f4dd2	0.06997265
141	0x3e064ec5	0.13115986
142	0x3dc5422d	0.09631763
143	0x3b5cd8c1	0.0033698531
144	0xbdbd030a	-0.09229095
145	0xbd1a609e	-0.037689798
146	0x3e17187d	0.14755435
147	0xbe114174	-0.14185125
148	0xbe0f266c	-0.139795
149	0x3e00fc90	0.12596345
150	0xbcbc361f	-0.022975026
151	0xbdd68749	-0.10475022
152	0xbd4d34ca	-0.05009917
153	0x3e0d1994	0.13779289
154	0x3dee9629	0.116497345
155	0xbd980090	-0.07421982
156	0xbcb9a2fb	-0.022660723
157	0x3d46d7a4	0.048545495
158	0xbda2d18a	-0.07950123
159	0xbd4c4c6e	-0.049877577
160	0xbc8a002a	-0.016845781
161	0x3d997a3b	0.07494017
162	0x3bffa034	0.00780108
163	0x3dc9d610	0.09855282
164	0x3d9d8b0c	0.07692537
165	0x3d3e5fd8	0.046478122
166	0x3e0d2716	0.13784441
167	0x3c16e18c	0.009209048
168	0xbe15c89f	-0.14627312
169	0x3dd67210	0.104709744
170	0x3ddec464	0.10877302
171	0xbdba8085	-0.091065444
172	0x3dcc675f	0.09980654
173	0xbdddeaa1	-0.108357675
174	0x3e0b7c7d	0.13621707
175	0x3d3874d8	0.045033306
176	0x3e0fd669	0.14046635
177	0xbd15a02d	-0.03652971
178	0x3dd0033f	0.10156869
179	0xbdeb5b3f	-0.11492013
180	0xbcf948e9	-0.030430274
181	0x3db6a011	0.08917249
182	0x3c0302ea	0.0079963
183	0xbd8d9deb	-0.06914886
184	0x3cade619	0.021227883
185	0xbdf7a54f	-0.12092077
186	0xbd940d62	-0.07229115
187	0xbd41ad71	-0.047284547
188	0xbdd18d3e	-0.10232018
189	0xbdb012aa	-0.0859731
190	0xbd1ca7be	-0.03824591
191	0x3e0f6e24	0.14006859
192	0x3e0d4eb3	0.13799553
193	0xbdfaa86b	-0.122391544
194	0xbe096aaa	-0.13419595
195	0x3d2cca19	0.042184923
196	0xbdeef13e	-0.11667107
197	0xbd953a2e	-0.072864875
198	0x3e05971b	0.13045923
199	0xbc94ebd1	-0.018178852
200	0x3d5057d6	0.050865017
201	0x3e0eb0fe	0.13934705
202	0xbd3d5900	-0.046227455
203	0x3df6a778	0.12043661
204	0xbd00a034	-0.03140278
205	0xbdd38c17	-0.103294544
206	0xbd8f9db4	-0.07012501
207	0xbd7c8a14	-0.06165512
208	0xbdf9fbda	-0.1220624
209	0x3cfccf02	0.030860428
210	0x3d5129ff	0.05106544
211	0xbdb90b2a	-0.090353325
212	0xbdc91d13	-0.098199986
213	0xbd4d5249	-0.0501273
214	0xbd14f8a1	-0.036369924
215	0xbde9cc35	-0.114159025
216	0x3c371b20	0.011175901
217	0xbcfa353f	-0.030542968
218	0xbc45b3fa	-0.012066836
219	0x3c1eda82	0.009695651
220	0xbe071646	-0.1319209
221	0xbe02104c	-0.1270153
222	0xbdd157c3	-0.10221817
223	0x3dc9ef09	0.098600455
224	0x3d82385e	0.063584074
225	0xbdf11b5c	-0.117727965
226	0xbdbb625f	-0.09149622
227	0xbca1f58e	-0.01977041
228	0xbd044019	-0.03228769
229	0xbdf1161f	-0.117717974
230	0x3d9a97f2	0.075485125
231	0xbce76986	-0.02824856
232	0x3d382ee2	0.044966586
233	0xbd133e27	-0.035947945
234	0xbddf9123	-0.109163545
235	0x3ce89147	0.028389586
236	0x3de3b704	0.11118892
237	0xbc301a0a	-0.010748396
238	0x3c880061	0.016601743
239	0xbdda99e3	-0.10673883
240	0x3e0c70a1	0.1371484
241	0x3da2f218	0.07956332
242	0xbdb879da	-0.09007616
243	0x3e089b75	0.13340552
244	0xbe0371a6	-0.12836322
245	0xbc91b19e	-0.01778489
246	0x3cf66717	0.030078454
247	0x3dcc5dd5	0.099788345
248	0xbe141313	-0.14460401
249	0xbd98633a	-0.07440801
250	0x3dbc2816	0.09187333
251	0x3e04e7e6	0.12979087
252	0x3d5bd9d8	0.05367455
253	0x3e0b8b2b	0.13627307
254	0xbd41f6c7	-0.047354486
255	0x3e0335c2	0.12813476

arith.constant8 f4 [64, 2048]
0	0xbd187fd1	-0.03723127
1	0xbc13aa1f	-0.009012728
2	0x3cf366d8	0.029712126
3	0x3d1c3e9c	0.038145646
4	0x3d467aa8	0.048456818
5	0x3ccbc345	0.024873385
6	0xbcc3ecdc	-0.023916654
7	0x3cbf2464	0.023332782
8	0xbc9ba038	-0.018997297
9	0xbc55c17d	-0.0130466195
10	0x3d41ec8f	0.04734474
11	0x3d403499	0.04692516
12	0xbcb3a2e9	-0.021928268
13	0xbce2af31	-0.027671428
14	0xbd3ce144	-0.046113268
15	0x3c39cd4c	0.0113404505
16	0xbc88f17c	-0.016716711
17	0xbd0c8cc0	-0.034313917
18	0xbd17f9fa	-0.03710363
19	0xbcf2b4e7	-0.029627277
20	0xbce8bcbc	-0.028410308
21	0xbc8b730d	-0.017022634
22	0xbb8239bd	-0.003974168
23	0x3d3a6960	0.04551065
24	0xbcd5aeef	-0.026084391
25	0x3d09550e	0.03352838
26	0xbd493341	-0.049121145
27	0xbd1f0a2f	-0.03882807
28	0x3d4f8b31	0.050669853
29	0x3d0842bf	0.03326678
30	0xbcf4db73	-0.029889798
31	0xbd2d666a	-0.042333998
32	0x3cce4249	0.025178092
33	0xbc75b98a	-0.014997849
34	0x3d010e62	0.031507857
35	0x3d6ce64b	0.057836812
36	0xbc202387	-0.009774095
37	0x3c3c3e25	0.011489426
38	0x3c8e3a43	0.017361766
39	0xbcd0df6c	-0.02549716
40	0x3cf91bbc	0.030408733
41	0xbd3aa6db	-0.045569282
42	0xbd206599	-0.03915939
43	0xbb8e661c	-0.0043456685
44	0xbd1a2aaa	-0.037638344
45	0xbd3a1a95	-0.045435507
46	0xbabf7495	-0.0014606888
47	0x3d1d3a93	0.03838594
48	0xbcfc64ee	-0.030809846
49	0x3d021076	0.03175398
50	0xbc8ced16	-0.017202895
51	0x3c8a9215	0.01691536
52	0xbcaf054e	-0.021364834
53	0xbb72356d	-0.0036958114
54	0xbd462141	-0.048371557
55	0x3b0f2b1f	0.002184577
56	0xbc9c9383	-0.019113308
57	0xbc09cba4	-0.008410368
58	0xbc5d3148	-0.013500519
59	0xbd22e4b7	-0.0397689
60	0x3cf76cc8	0.030203238
61	0x3c8dfc7c	0.017332308
62	0xbc99eed6	-0.018790644
63	0xbd340d47	-0.043957975
64	0xbcf5032f	-0.029908745
65	0xbc7ad98b	-0.015310655
66	0x3d09c2b9	0.033632968
67	0xbcf2a67c	-0.029620402
68	0x3cbb3519	0.022852467
69	0xbd1e8a2d	-0.038705993
70	0xbc052a16	-0.00812771
71	0x3cff9ef9	0.031203734
72	0x3d17ac60	0.037029624
73	0x3cf18f5f	0.02948731
74	0x3c57987b	0.013158913
75	0xbc094713	-0.008378762
76	0x3cc86d7e	0.024466272
77	0xbb6b3b92	-0.003589366
78	0xbcbf7655	-0.023371855
79	0x3d3fd9d2	0.04683859
80	0x3c3be060	0.011467069
81	0xbd0ac1a8	-0.03387609
82	0x3d3b181c	0.04567729
83	0xbce064af	-0.02739176
84	0x3d0a3fff	0.033752438
85	0x3d321b82	0.043483265
86	0x3cc575b7	0.024103982
87	0xbbfef311	-0.0077804406
88	0x3c8eca96	0.017430585
89	0x3cb8600a	0.022506732
90	0x3d5e4ded	0.054273535
91	0x3cf5b5d4	0.029993929
92	0x3c095ec0	0.008384407
93	0xbd3709f4	-0.044687226
94	0xbcd5fb67	-0.026120855
95	0x3d24d3db	0.040241104
96	0x3cddbcce	0.027067568
97	0xbd44dfdd	-0.048065055
98	0xbc8e3ffc	-0.017364495
99	0x3cace95e	0.021107372
100	0x3a4f315d	0.0007903779
101	0x3a48a197	0.00076534733
102	0xbc0170f9	-0.00790047
103	0xbc88f0db	-0.016716411
104	0x3d1adb6c	0.037806913
105	0x3cd54555	0.026034037
106	0x3cc3ccb3	0.02390132
107	0x3d5d8c5c	0.054088935
108	0xbd21fe5b	-0.039549213
109	0xbd2f3c9f	-0.042782422
110	0xbd48ca76	-0.049021207
111	0xbd159502	-0.036519058
112	0xbc945b1c	-0.01810985
113	0xbd0c2412	-0.034214087
114	0xbcc5d40d	-0.024148965
115	0x3c31b604	0.010846619
116	0x3d55e862	0.05222357
117	0xbd1633d2	-0.036670513
118	0xbd13d448	-0.03609112
119	0xbc161c1b	-0.009161974
120	0x3d0a55cc	0.03377323
121	0x3c5a5bdb	0.013327564
122	0xbbd4dcf3	-0.0064960658
123	0x3bd88f5e	0.0066088876
124	0xbd3b1aa3	-0.0456797
125	0xbb15e9ec	-0.0022875024
126	0x3c65b567	0.0140203005
127	0x3d63f351	0.055651966
128	0x3c8004a6	0.015627217
129	0xbcddbc1a	-0.027067233
130	0xbcae29f1	-0.021260234
131	0xbcf18f2b	-0.029487213
132	0x3d39e774	0.045386747
133	0x3d46b979	0.048516724
134	0x3cbe63ce	0.02324095
135	0x3c8c59f4	0.017132737
136	0x3b38797b	0.002814858
137	0xbd1637e7	-0.036674406
138	0x3cac999a	0.021069337
139	0x3d36f129	0.044663582
140	0xbd4fca2e	-0.050729923
141	0x3b43dab6	0.0029885
142	0x3d5b777e	0.053580754
143	0xbcf97a32	-0.030453775
144	0x3d4a4260	0.049379706
145	0xbd329786	-0.043601535
146	0x3cb188eb	0.021671733
147	0xbd1077f0	-0.03527063
148	0x3d21d40c	0.039508864
149	0x3d1bcab8	0.038035125
150	0xbce9a5ad	-0.028521383
151	0x3d02eb35	0.031962592
152	0xbd05fc78	-0.032711476
153	0x3d61664f	0.05502921
154	0x3c25187c	0.010076638
155	0x3b5925bb	0.0033134061
156	0xbd2ccfe6	-0.042190455
157	0x3cc59e81	0.024123432
158	0xbd202623	-0.03909887
159	0xbd0bcb3b	-0.034129363
160	0x3d610510	0.05493647
161	0xbd3f3bd0	-0.0466879
162	0xbcb8afc6	-0.022544753
163	0x3d4c965b	0.049948078
164	0xbd52b049	-0.05143765
165	0xbbe1ccd0	-0.0068908706
166	0x3ce9e12b	0.028549751
167	0x3d2f4a68	0.04279557
168	0x3b0d5326	0.0021564453
169	0xbcdda8a5	-0.027057955
170	0xbcec0cfb	-0.028814783
171	0x3d2757e0	0.04085529
172	0x3d4b56d5	0.049643356
173	0x3cf1cabd	0.029515618
174	0x3d3a9242	0.04554964
175	0x3c56e378	0.013115756
176	0x3d08aee0	0.0333699
177	0xbca2f064	-0.019890018
178	0x3c8dfcf6	0.017332535
179	0xbc8d7022	-0.017265383
180	0xbc8f07af	-0.017459719
181	0x3c97c4c8	0.01852645
182	0xbd48eb86	-0.049052738
183	0xbc98860e	-0.01861861
184	0xbcc9f0bb	-0.024650922
185	0xbcc19239	-0.023629295
186	0x3c09f6d6	0.008420667
187	0xbbafe15e	-0.005367442
188	0xbc9795ff	-0.01850414
189	0x3b889397	0.0041679847
190	0x3d581513	0.052754473
191	0xbd45130c	-0.048113868
192	0xbccd2728	-0.025043085
193	0xbc76c57e	-0.015061734
194	0xbc87ef4d	-0.0165936
195	0xbcd55cff	-0.02604532
196	0xbbb3bb9f	-0.0054850127
197	0xbccb3313	-0.024804628
198	0x3c62dc09	0.013846406
199	0xbd4043bb	-0.046939593
200	0xbb7fd689	-0.0039037785
201	0x3c699581	0.014256836
202	0xbbacfa3b	-0.0052788532
203	0x3d29b5ec	0.04143326
204	0xbd3f5401	-0.04671097
205	0xbcb28ba1	-0.021795096
206	0xbd0f6da0	-0.035016656
207	0x3c0a4abb	0.008440669
208	0x3d2a1c96	0.041531168
209	0xbd2ebbf9	-0.042659733
210	0xbc608fa0	-0.013706118
211	0xbc940614	-0.018069305
212	0xbc577ab2	-0.013151811
213	0xbd4bee2e	-0.049787693
214	0xbb07c143	-0.0020714558
215	0x3c1ed535	0.009694387
216	0xbbb434e6	-0.00549947
217	0x3d393c54	0.04522355
218	0x3b09300d	0.0020933182
219	0x3bea88a9	0.0071574044
220	0x3cbd98ef	0.023144213
221	0xbb1d14ae	-0.0023968625
222	0xbc31093e	-0.010805426
223	0x3c13865a	0.0090042
224	0xbc94bc06	-0.018156063
225	0x3ca0e305	0.019639501
226	0xbd0de451	-0.034641568
227	0xbd1572f1	-0.03648657
228	0x3ce614f5	0.028086165
229	0xbc980f87	-0.018562092
230	0xbb6a050f	-0.0035708582
231	0x3d0b7352	0.034045525
232	0x3cb18094	0.021667756
233	0x3c8369e6	0.016041707
234	0xbcbdf444	-0.023187764
235	0xbcb54ed8	-0.022132322
236	0xbd04c55f	-0.03241479
237	0xbbb03efa	-0.005378601
238	0x3d29c2f0	0.041445673
239	0xbd3e8123	-0.046509873
240	0xbbe43c4e	-0.0069651967
241	0x3cd7a2a0	0.026322663
242	0xbd2feb12	-0.04294879
243	0xbd3f3611	-0.04668242
244	0xbd4d330b	-0.050097506
245	0xbcef32b9	-0.029198991
246	0x3d5c30fb	0.05375765
247	0xbd0272c3	-0.031847727
248	0x3d1bfda8	0.038083702
249	0xbd2a36f2	-0.041556306
250	0xbd07e926	-0.033181332
251	0xbc9735c2	-0.01845825
252	0x3d354266	0.044252776
253	0x3ceca40c	0.028886817
254	0xbbd6dabd	-0.0065568374
255	0xbc8a68b2	-0.016895626

arith.constant9 f4 [64]
0	0x3b518d3e	0.0031975056
1	0x3a90f4c3	0.0011059273
2	0x398b0143	0.00026513086
3	0x3ac733d9	0.0015197947
4	0x3a4fe7b1	0.0007930948
5	0x3b9e87ef	0.004837982
6	0x3aa07263	0.0012241121
7	0xb84ee127	-4.9323917e-05
8	0x3b3bf92e	0.0028682458
9	0xbbc5c364	-0.0060352553
10	0x3bbb3efa	0.0057142945
11	0x3b9eb89d	0.004843785
12	0xbb9478ef	-0.004531018
13	0x3af953ce	0.0019022168
14	0x3bc9d53b	0.0061594523
15	0xbabeb629	-0.0014550138
16	0xbb3cecaa	-0.0028827586
17	0xbb198853	-0.0023427203
18	0x3badee50	0.00530795
19	0x3c7ecc9b	0.015551711
20	0xbbbcb424	-0.005758779
21	0xbb90f1ee	-0.0044233715
22	0x3bdf68e9	0.006817926
23	0xbb5dd786	-0.0033850386
24	0x3c2ac623	0.010423216
25	0x3c586352	0.013207274
26	0x3c076467	0.008263684
27	0xbb803a2b	-0.003913184
28	0x3bb6d4bf	0.0055795605
29	0xba2ef41d	-0.0006673949
30	0xba2e6240	-0.00066522136
31	0x3a8f69cd	0.0010941565
32	0x3c1a6924	0.009424482
33	0x3ba7e7c1	0.0051240628
34	0x3c465b89	0.012106785
35	0xbbec6580	-0.007214248
36	0x3c69f096	0.014278552
37	0xbaf264fe	-0.0018493233
38	0x3ae82971	0.0017712546
39	0xbaa91288	-0.00128992
40	0xbbc92a4f	-0.006139077
41	0x3b16273e	0.0022911574
42	0x3c172dc8	0.009227224
43	0x38ff93c0	0.00012186868
44	0x3b6f66ae	0.0036529708
45	0xb998f129	-0.00029171378
46	0xbbe37fbc	-0.0069427174
47	0x3c26f44e	0.010190083
48	0x3b5cb6c7	0.003367828
49	0x3b46427e	0.0030252035
50	0x3c02c6e0	0.007981986
51	0xbba46e2b	-0.005018016
52	0xbb8420cb	-0.0040322295
53	0x3bbfe9b5	0.0058567175
54	0xbbd8964e	-0.0066097146
55	0xbb8e2710	-0.0043381527
56	0xbb2aa8b1	-0.002604049
57	0x3c3efe03	0.011657241
58	0xbbab23ae	-0.005222759
59	0x3bdb78a0	0.006697729
60	0x3c086804	0.0083255805
61	0xbac1929e	-0.0014768427
62	0x3ba55ba4	0.005046325
63	0xbb4b9eae	-0.0031069922

sequential_1/batch_normalization_1_2/batchnorm/mul f4 [16]
0	0x40b00ce2	5.5015726
1	0x40c32cd2	6.099221
2	0x404786d4	3.1176043
3	0x4011ed7b	2.2801197
4	0x40843f50	4.1327286
5	0x402f9829	2.743662
6	0x40015b18	2.021185
7	0x40af8626	5.4851255
8	0x40aef9d7	5.467998
9	0x40494f5d	3.145469
10	0x402a25cc	2.658557
11	0x406e3f4f	3.722614
12	0x401fd2b8	2.4972363
13	0x402cac13	2.6980026
14	0x40878a17	4.2356067
15	0x40b61d01	5.6910405

sequential_1/batch_normalization_1_2/batchnorm/sub f4 [16]
0	0xbf247796	-0.64244974
1	0xbf348bff	-0.7052612
2	0xbf13c347	-0.57719845
3	0xbf228629	-0.6348596
4	0xbf075444	-0.52862954
5	0xbf0d21b9	-0.5512958
6	0xbf3188cc	-0.6934936
7	0xbf1a22df	-0.6020946
8	0xbf1a6da1	-0.6032353
9	0xbf3e64ce	-0.74372566
10	0xbf2c3886	-0.6727375
11	0xbf37468b	-0.71592015
12	0xbf291db1	-0.6606093
13	0xbf25a98a	-0.6471182
14	0xbf1387c6	-0.5762905
15	0xbf20ccf9	-0.62812763

sequential_1/batch_normalization_1/batchnorm/mul f4 [16]
0	0x41fcb801	31.589846
1	0x41cd7368	25.68135
2	0x41fc2feb	31.523397
3	0x41f659f3	30.79392
4	0x41d1cffd	26.226557
5	0x41bb03ac	23.376793
6	0x41fdd89a	31.730762
7	0x41f3c3bc	30.470573
8	0x41fd03b2	31.626804
9	0x41359cc2	11.350771
10	0x4093b82a	4.616231
11	0x41fc7251	31.555819
12	0x4171dde2	15.116671
13	0x41fc9ccd	31.576563
14	0x403b4585	2.9261181
15	0x41f9a7a6	31.20686

sequential_1/batch_normalization_1/batchnorm/sub f4 [16]
0	0x3c2405a4	0.01001111
1	0xbf050742	-0.519642
2	0x3c36060b	0.011109839
3	0xbc5ebe84	-0.013595227
4	0xbdbcc2a7	-0.092168145
5	0xbdec6af6	-0.11543839
6	0x3c3dfb42	0.011595549
7	0xbd00031e	-0.031252973
8	0x3a9f59ff	0.0012157558
9	0xbfc63c49	-1.5487148
10	0xc0040e6f	-2.063381
11	0x3c360a6e	0.011110885
12	0xbf9aa727	-1.2082261
13	0xbb513c1e	-0.0031926702
14	0xc00b14d7	-2.173147
15	0x3c0f2ea0	0.008739144

sequential_1/batch_normalization_2_1/batchnorm/mul f4 [32]
0	0x40024196	2.035253
1	0x3f81c4a4	1.0138135
2	0x3fa35c85	1.276261
3	0x4026cb36	2.606153
4	0x401a0f30	2.407177
5	0x3fa92e06	1.321717
6	0x3fa37432	1.2769835
7	0x3fa846a1	1.3146554
8	0x3fc5f1b9	1.5464393
9	0x3fc6e818	1.5539579
10	0x3f9c1448	1.2193689
11	0x3f9f30be	1.243675
12	0x3f9c5404	1.221314
13	0x3fd1261d	1.6339756
14	0x40021a85	2.0328686
15	0x3ff1e132	1.8896849
16	0x3ff6f99f	1.9294928
17	0x3fb54860	1.4162712
18	0x3ffd4bdc	1.9788775
19	0x3fb4f98e	1.4138658
20	0x3fee14a0	1.8600044
21	0x400fa16c	2.2442274
22	0x3fc502ec	1.5391517
23	0x3fc02e58	1.5014143
24	0x3f8fa843	1.1223224
25	0x3fe1952f	1.7623652
26	0x3f809719	1.0046111
27	0x402a554e	2.6614566
28	0x3fad12bc	1.3521342
29	0x3fa29f16	1.2704799
30	0x3f9a10b1	1.2036344
31	0x3f8a3dc5	1.08001

sequential_1/batch_normalization_2_1/batchnorm/sub f4 [32]
0	0xbf196ef9	-0.59934956
1	0xbf24dfee	-0.6440419
2	0xbf2286a7	-0.63486713
3	0xbee471bd	-0.44618025
4	0xbf2043f5	-0.62603694
5	0xbf063358	-0.52422094
6	0xbf3e523b	-0.74344224
7	0xbf3127b9	-0.69201237
8	0xbf2af1bb	-0.667751
9	0xbf302c58	-0.68817663
10	0xbf27bee5	-0.65525657
11	0xbf374d30	-0.71602154
12	0xbf3c9947	-0.7367138
13	0xbf41ae39	-0.7565647
14	0xbf17b896	-0.5926603
15	0xbf1c6af1	-0.6110068
16	0xbf2abd34	-0.6669495
17	0xbf24f980	-0.64443207
18	0xbf38492c	-0.7198665
19	0xbf5473f6	-0.8298944
20	0xbf1ebaf3	-0.6200401
21	0xbf188448	-0.59576845
22	0xbf3a9356	-0.72881067
23	0xbf23f096	-0.6403898
24	0xbf354385	-0.7080615
25	0xbf472c32	-0.7780181
26	0xbf3c1d5a	-0.73482287
27	0xbf08ac5b	-0.53387994
28	0xbf3e4bb6	-0.74334276
29	0xbf540fee	-0.82836807
30	0xbf64b87b	-0.89343995
31	0xbf3b5c69	-0.7318788

sequential_1/batch_normalization_3_1/batchnorm/mul f4 [32]
0	0x3fd38895	1.6526057
1	0x3fdda105	1.7314764
2	0x3fc005f6	1.5001819
3	0x3fc76711	1.5578328
4	0x3fa8abfb	1.3177484
5	0x3fea98e7	1.8327912
6	0x3fc3ce3e	1.5297315
7	0x3fbb90b4	1.4653535
8	0x3f9f8e01	1.2465211
9	0x3ffa3aa5	1.9549147
10	0x3ff88c85	1.9417883
11	0x40026005	2.0371106
12	0x3fae112f	1.3598994
13	0x3fc9ffe0	1.5781212
14	0x3fbdef04	1.4838567
15	0x3fc074cb	1.5035642
16	0x3fcf7eec	1.6210608
17	0x3ff0a543	1.8800434
18	0x3fca7223	1.5816082
19	0x3fe7d20b	1.8110975
20	0x3ff0b23f	1.8804396
21	0x3fe9724f	1.8238009
22	0x3fff6843	1.9953693
23	0x3fd09d4d	1.6298004
24	0x3ffa8862	1.9572871
25	0x3f9d20d1	1.227564
26	0x3ffbdd9d	1.9677006
27	0x3ff12d03	1.8841861
28	0x3fdfbd8a	1.7479718
29	0x3fdcb242	1.72419
30	0x3ff8918f	1.9419421
31	0x400229e4	2.0338068

sequential_1/batch_normalization_3_1/batchnorm/sub f4 [32]
0	0xbf281ef0	-0.65672207
1	0xbf1f2b46	-0.62175405
2	0xbf1b46cd	-0.6065491
3	0xbf3c340c	-0.7351692
4	0xbf1d04dd	-0.61335546
5	0xbf39931d	-0.724901
6	0xbf155386	-0.5833057
7	0xbf209f02	-0.62742627
8	0xbf2ef0ad	-0.6833599
9	0xbf41b2f8	-0.7566371
10	0xbf3e4901	-0.74330145
11	0xbf3ab945	-0.7293895
12	0xbf1f55eb	-0.62240475
13	0xbf2589b8	-0.6466327
14	0xbf221f48	-0.6332898
15	0xbf273f3d	-0.6533087
16	0xbf164d65	-0.58711845
17	0xbf2cf8ce	-0.67567146
18	0xbf235dda	-0.6381508
19	0xbf39b831	-0.7254668
20	0xbf27608b	-0.6538169
21	0xbf32ab44	-0.6979258
22	0xbf362ca4	-0.71161866
23	0xbf272bc8	-0.6530118
24	0xbf2ff528	-0.68733454
25	0xbf2227a1	-0.6334172
26	0xbf34c02d	-0.70605737
27	0xbf29d1d2	-0.66335785
28	0xbf11a221	-0.56888014
29	0xbf1d58a4	-0.6146338
30	0xbf38e5ed	-0.7222584
31	0xbf39f338	-0.7263675

sequential_1/conv2d_1/convolution f4 [16, 3, 3, 3]
0	0x3d4a0a28	0.049326092
1	0xbe01582c	-0.12631291
2	0x3da9a344	0.082830936
3	0xbe03cf70	-0.128721
4	0xbd4ea743	-0.050452482
5	0xbdb5ee10	-0.088832974
6	0x3daf8b56	0.08571498
7	0x3d8b008f	0.06787216
8	0x3e27fc94	0.16404945
9	0xbe34d991	-0.1766112
10	0xbe0e04fa	-0.13869086
11	0x3e23a13b	0.15979473
12	0x3bd20bf8	0.006410118
13	0xbe2a5877	-0.16635309
14	0xbe0423cc	-0.1290428
15	0xbcf8cb5a	-0.030370403
16	0x3ae8e730	0.0017769095
17	0xbe0d269c	-0.1378426
18	0x3e202080	0.15637398
19	0xbd474c73	-0.048656892
20	0xbc8e9e95	-0.017409602
21	0xbe035440	-0.12825108
22	0xbdf11ef0	-0.11773479
23	0xbe175780	-0.14779472
24	0xbe14a8fc	-0.14517587
25	0xbd3a1eb7	-0.04543945
26	0xbc15bf0a	-0.009139786
27	0x3e16d158	0.14728296
28	0x3c35acd4	0.011088569
29	0x3ddbddf4	0.107356936
30	0xbe12d95e	-0.14340732
31	0x3e127a49	0.1430446
32	0xbda872e3	-0.08225038
33	0xbd91566f	-0.07096564
34	0xbd119c8d	-0.03554969
35	0xbd231e1e	-0.039823644
36	0xbcc61e2c	-0.024184309
37	0x3dd4305b	0.103607856
38	0xbe059084	-0.1304341
39	0x3de2d760	0.11076236
40	0x3e3cd1b1	0.18439366
41	0xbe37dcb4	-0.17955285
42	0xbd6df937	-0.058098998
43	0x3bb73091	0.0055905064
44	0xbcce18dd	-0.02515834
45	0xbdb3ec41	-0.08785296
46	0x3db6160a	0.08890922
47	0xbe3246ea	-0.17409864
48	0x3d8a5c59	0.06755895
49	0xbd60a6f4	-0.05484672
50	0xbe189bcf	-0.14903186
51	0x3df281a9	0.11841137
52	0xbd6fd285	-0.058550376
53	0x3e0991ca	0.1343452
54	0xbe276719	-0.16347922
55	0x3d8eefa5	0.06979302
56	0x3dabd055	0.083893456
57	0x3e057cf2	0.13035944
58	0xbda5cd71	-0.080958255
59	0x3d917bc3	0.07103684
60	0xbd2dab7c	-0.04239987
61	0x3cd082ff	0.025453089
62	0xbd443780	-0.04790449
63	0xbdc4c178	-0.09607214
64	0x3d2a0621	0.04150975
65	0x3d9d162e	0.07670246
66	0x3d1f3a55	0.03887399
67	0xbdd02043	-0.101624034
68	0xbe1cce8b	-0.15313165
69	0x3d07a1a8	0.03311315
70	0xbdc5db98	-0.09661025
71	0x3e257b89	0.16160406
72	0xbdbdb7ac	-0.09263548
73	0xbe10cf5b	-0.141416
74	0x3d509cea	0.050930895
75	0xbe0295ab	-0.12752406
76	0xbdf52e74	-0.11971751
77	0xbded63c4	-0.115912944
78	0xbe086d68	-0.13322985
79	0x3e2c2036	0.16809162
80	0xbca8a41c	-0.020586066
81	0xbdce5c1f	-0.100761645
82	0xbc3e3650	-0.011609629
83	0x3d81afd4	0.06332365
84	0xbe3618a4	-0.17782837
85	0x3e392840	0.1808176
86	0x3d8b0dcc	0.06789741
87	0x3cbcf80b	0.023067495
88	0xbc96e387	-0.01841904
89	0xbe37003b	-0.17871182
90	0xbded0059	-0.11572332
91	0xbdc11e11	-0.09429563
92	0xbd2fa138	-0.04287836
93	0xbe40d6d1	-0.18831946
94	0xbe0f79a5	-0.14011247
95	0xbb492f33	-0.00306983
96	0x3deee848	0.11665398
97	0x3cf302b5	0.029664377
98	0x3e1b01e2	0.15137437
99	0xbb3fc14c	-0.00292595
100	0x3e0469af	0.1293094
101	0x3d7db5c5	0.061940927
102	0xbd99f1a4	-0.075167924
103	0xbb075e14	-0.002065544
104	0x3da3223a	0.079655126
105	0xbddec61a	-0.108776286
106	0x3dbcf0c8	0.09225613
107	0x3e1bbdb4	0.15209085
108	0xbe28c209	-0.16480269
109	0x3d797698	0.060904115
110	0x3d830e60	0.06399226
111	0xbe2e2f54	-0.17010242
112	0xbd99db10	-0.07512486
113	0xbdab8929	-0.083757706
114	0xbdec989c	-0.115525454
115	0xbe350e5d	-0.1768126
116	0x3dc55420	0.09635186
117	0xbd7d563a	-0.06184981
118	0xbe229a81	-0.15879251
119	0x3e258748	0.16164887
120	0xbdeced4c	-0.11568698
121	0xbd378a39	-0.044809554
122	0x3de1157c	0.10990426
123	0xbcc42ee0	-0.023948133
124	0x3e37c196	0.17944941
125	0x3dd8ae7a	0.10580154
126	0x3ddac650	0.10682356
127	0xbdbcca6d	-0.09218297
128	0x3da14bc3	0.078757785
129	0xbdd92c22	-0.10604121
130	0x3e3ffe46	0.18749341
131	0xbd6ce95d	-0.05783974
132	0x3d84fd5d	0.06493638
133	0xbc40a207	-0.01175738
134	0x3d5bead4	0.053690746
135	0x3e21f2c9	0.15815271
136	0x3e3de09d	0.18542714
137	0x3e36ece0	0.17863798
138	0xbd67691d	-0.05649673
139	0xbe075a9e	-0.13218161
140	0xbd6faecb	-0.058516305
141	0xbb51443e	-0.0031931545
142	0xbddd7a35	-0.10814325
143	0x3af1a893	0.001843708
144	0xbdd5fa14	-0.10448089
145	0x3d402fb5	0.046920497
146	0xbddf276a	-0.108961895
147	0x3d02135e	0.03175675
148	0xbe223459	-0.15840282
149	0x3d5198b1	0.05117101
150	0x3c37e6a2	0.011224421
151	0xbe35690e	-0.17715856
152	0xbdffe01f	-0.124939196
153	0xbd183afe	-0.037165634
154	0xbde0c37f	-0.10974788
155	0xbc3534cf	-0.011059954
156	0x3e13baf9	0.14426793
157	0x3df6ddf0	0.1205405
158	0x3e3c4e37	0.18389212
159	0xbe19e0c3	-0.15027146
160	0xbe2d410b	-0.16919343
161	0x3db82435	0.08991281
162	0xbe1eb0ab	-0.15497081
163	0x3e184598	0.14870298
164	0x3b39e0de	0.002836279
165	0xbe279c7b	-0.16368286
166	0xbe29677e	-0.16543385
167	0x3e36d984	0.17856413
168	0xbd64bcd2	-0.055844136
169	0xbe40b8d6	-0.1882051
170	0xbe437942	-0.19089225
171	0x3c58cef0	0.0132329315
172	0xbe3df66a	-0.18551031
173	0xbddac517	-0.10682123
174	0x3e1fd6c1	0.15609266
175	0x3dbdde96	0.092709705
176	0xbc966a84	-0.018361337
177	0xbe00be9b	-0.1257271
178	0xbcbd4831	-0.023105713
179	0x3d5191dc	0.051164493
180	0xbe2ad635	-0.16683276
181	0xbdcf5f2c	-0.101255745
182	0x3dbe8df7	0.093044214
183	0xbd89f87b	-0.06736847
184	0x3e174e9b	0.1477608
185	0xbe018b94	-0.12650901
186	0xbe122b0b	-0.14274232
187	0xbe39c82e	-0.18142769
188	0x3dfee8f6	0.124467775
189	0x3e2b87ca	0.16751018
190	0xbdfa8bcc	-0.122336954
191	0x3d26b37b	0.04069851
192	0xbde9c893	-0.114152096
193	0xbd7c26f4	-0.061560586
194	0x3d1fc220	0.03900349
195	0x3def40e6	0.116823
196	0x3deec5b5	0.116588034
197	0x3e081b10	0.13291574
198	0xbd825504	-0.06363872
199	0x3e24e61c	0.16103405
200	0xbd2d547c	-0.0423169
201	0xbe2f4501	-0.17116167
202	0xbc8ff019	-0.017570542
203	0x3d786a6b	0.060648363
204	0xbd815386	-0.06314759
205	0xbd0bc749	-0.0341256
206	0xbd186804	-0.037208572
207	0xbe1b6657	-0.15175758
208	0xbe09dda3	-0.13463454
209	0xbdb34f9e	-0.0875542
210	0xbe0ea0a2	-0.13928464
211	0x3dc97a0f	0.09837734
212	0xbdf02249	-0.117252894
213	0xba38dc23	-0.0007051846
214	0x3e25e118	0.16199148
215	0xbc38316b	-0.011242251
216	0x3e0e4fc5	0.13897617
217	0x3e0b9b9e	0.13633582
218	0x3c7cc933	0.015428829
219	0xbd935769	-0.071944065
220	0xbc6591b7	-0.014011792
221	0x3baf71ad	0.0053541274
222	0xbdedb140	-0.116060734
223	0x3dd0625f	0.10175013
224	0xbe2ee06e	-0.170778
225	0xbe3ecfca	-0.18633953
226	0xbe144ffe	-0.1448364
227	0x3d828344	0.06372693
228	0xbd3b54a5	-0.04573502
229	0x3cf0c83b	0.029392352
230	0x3dc4f8cf	0.09617769
231	0x3dbbe4b5	0.09174482
232	0xbe263916	-0.16232714
233	0x3da0c4b8	0.07850021
234	0xbdad9c00	-0.0847702
235	0xbcc2eca6	-0.023794483
236	0xbe31d063	-0.1736465
237	0x3d06249a	0.03274975
238	0xbdef3c34	-0.11681405
239	0xbe0ec802	-0.13943484
240	0xbe22ac6b	-0.15886085
241	0x3e1e30a2	0.1544824
242	0x3dd2b55f	0.102885
243	0x3e28dc22	0.16490224
244	0x3e149228	0.14508879
245	0xbd096a23	-0.033548485
246	0x3e2bfc91	0.16795565
247	0x3dc10542	0.09424831
248	0xbcb49be1	-0.022046985
249	0x3c9af6ea	0.018916566
250	0xbe408644	-0.18801218
251	0xbc7da464	-0.015481088
252	0xbbbe8b22	-0.005814926
253	0x3dc06f99	0.093962856
254	0xbdd58cab	-0.10427221
255	0x3e05b423	0.13056998

sequential_1/activation_1/Relu;sequential_1/conv2d_1/add;sequential_1/conv2d_1/convolution; f4 [16]
0	0x3a6ac0a3	0.0008955097
1	0x3c0f2ef9	0.0087392265
2	0x3b134b91	0.002247546
3	0xbbaa43c9	-0.005196069
4	0x3b880363	0.0041507944
5	0x3ac3f720	0.0014950968
6	0xba9c849d	-0.0011941377
7	0xbb846d67	-0.004041362
8	0xbb11f18a	-0.0022269213
9	0xba30882c	-0.00067341584
10	0x3b08bc57	0.0020864212
11	0x39f5dc48	0.00046894164
12	0xbbfd6a45	-0.0077336156
13	0xbb3e093a	-0.0028997199
14	0x3b6fce16	0.0036591343
15	0xba560816	-0.0008164657
