new_version/liveness_model.tflite (tflite, 159144 bytes, 20 tensors)

arith.constant f4 [16]
0	0xbb210964	-0.0024572248
1	0xb9387b76	-0.000175936
2	0xb70e7c7c	-8.492843e-06
3	0x3bb12355	0.0054058232
4	0x3b54172e	0.003236245
5	0x3c041414	0.008061428
6	0xb9c89dd2	-0.00038264558
7	0xba881bf4	-0.0010384307
8	0x3b0cc599	0.0021480082
9	0x3b0f2623	0.00218428
10	0x39382514	0.0001756142
11	0x3a0b79f7	0.00053206034
12	0xbb3f5331	-0.0029193873
13	0xba8c0969	-0.0010683957
14	0x3a6b0e20	0.00089666434
15	0x3bfb5481	0.0076699858

arith.constant1 f4 [16, 3, 3, 3]
0	0x3de35436	0.11100046
1	0x3d2b2568	0.04178372
2	0x3c947451	0.01812187
3	0x3d78bc19	0.06072626
4	0xbbc3715c	-0.005964441
5	0xbcc22b4f	-0.023702292
6	0x3e0f206f	0.13977216
7	0xbd8fac7d	-0.070153214
8	0x3cd4a3b5	0.025956968
9	0x3dad0f11	0.08450139
10	0xbce24df3	-0.02762506
11	0xbdba7e4b	-0.0910612
12	0x3c4d7e1e	0.012542276
13	0xbdf3283a	-0.11872907
14	0xbe1c20ea	-0.1524693
15	0x3e0e4a84	0.13895613
16	0x3da4814e	0.080324754
17	0xbdd98362	-0.106207624
18	0x3e044732	0.12917784
19	0xbdfbe025	-0.122986116
20	0xbe0eac39	-0.13932885
21	0xbd2b9709	-0.041892085
22	0x3e270e85	0.16314133
23	0x3c6a0107	0.0142824715
24	0xbe138379	-0.14405622
25	0x3df0605d	0.1173713
26	0xbbf0845f	-0.0073399986
27	0xbe21251a	-0.1573681
28	0xbda2e591	-0.079539426
29	0xbc1c44ca	-0.009537885
30	0x3d90d61b	0.070720874
31	0xbdbe1f68	-0.09283334
32	0x3e33b0ca	0.17547908
33	0xbd9a7321	-0.0754149
34	0xbc397d9e	-0.011321453
35	0xbe248c76	-0.16069207
36	0xbe34c771	-0.17654206
37	0x3d14caef	0.036326345
38	0xbe2e6a98	-0.1703285
39	0xbe1e82f4	-0.15479642
40	0x3e15e212	0.1463702
41	0x3e26db85	0.16294678
42	0xbdd9c479	-0.10633177
43	0xbdf31b82	-0.11870481
44	0xbe135c5d	-0.14390703
45	0xbe314101	-0.17309953
46	0xbc7fe8ad	-0.015619439
47	0x3da87cab	0.082269035
48	0xbd322f56	-0.043502174
49	0x3ddea1d1	0.10870708
50	0xbdbdb322	-0.092626825
51	0x3e1082bc	0.14112371
52	0x3c8377d7	0.016048355
53	0x3e2b3637	0.167199
54	0x3e01d2f0	0.12678123
55	0xbe1b85dc	-0.15187782
56	0x3ca0dc26	0.019636225
57	0x3d9928e0	0.074784994
58	0x3d0792a7	0.033098843
59	0x3d780bb4	0.060558036
60	0x3e308920	0.17239809
61	0x3dcb07d7	0.09913605
62	0x3df9fbce	0.12206231
63	0xbdbb6675	-0.091504015
64	0x3e2ac30b	0.16675965
65	0x3e2c8c68	0.16850436
66	0x3d4baeff	0.049727436
67	0x3e25aae3	0.1617847
68	0xbe23eb3c	-0.16007704
69	0x3da82650	0.082104325
70	0xbb379387	-0.0028011517
71	0xbd6ccb88	-0.05781129
72	0xbd0adbac	-0.0339009
73	0xbdbd5d25	-0.092462815
74	0x3e253910	0.16135049
75	0xbde69292	-0.11258425
76	0xbde9152c	-0.11380991
77	0x3e1f3c72	0.15550402
78	0xbe1629d1	-0.14664389
79	0xbe181308	-0.1485101
80	0xbe339166	-0.17535934
81	0xbe32be68	-0.17455447
82	0x3d101ff2	0.035186715
83	0x3dcb77a1	0.09934927
84	0xbdd955ed	-0.10612092
85	0x3e11403f	0.14184664
86	0x3dd263ee	0.10272966
87	0x3dba010f	0.09082233
88	0xbd27f06d	-0.041000772
89	0xbdc27916	-0.094957516
90	0xbd457510	-0.048207343
91	0xbe337624	-0.17525536
92	0x3c1bfb45	0.009520357
93	0x3ce118f9	0.027477728
94	0x3d04b7be	0.032401793
95	0x3bd76ed4	0.006574491
96	0x3dca13ba	0.09867044
97	0x3d5bdf69	0.053679857
98	0xbde8c882	-0.11366369
99	0x3e358c1f	0.17729233
100	0xbc1762d2	-0.009239869
101	0x3ca2c91b	0.019871285
102	0x3e21b772	0.15792635
103	0x3e0cc048	0.13745224
104	0x3e10b67f	0.14132117
105	0x3e019598	0.12654722
106	0xbe3e75f5	-0.18599685
107	0xbe409133	-0.18805389
108	0x3dea9548	0.114542544
109	0x3d566720	0.05234444
110	0xbbc47ec0	-0.005996555
111	0x3df58dc6	0.11989932
112	0x3dfea175	0.12433139
113	0xbd8501c9	-0.06494481
114	0xbdefc83f	-0.11708116
115	0xbcb51880	-0.02210641
116	0x3df21507	0.11820417
117	0x3e0f76a4	0.14010102
118	0x3d75aa19	0.05997667
119	0xbcdbaf48	-0.026816979
120	0x3d98e1fc	0.07464978
121	0x3de05c82	0.109551445
122	0x3d061a1c	0.032739744
123	0xbbb7c5a9	-0.0056082797
124	0x3d919690	0.07108796
125	0x3e07973e	0.13241288
126	0xbe12cc1b	-0.14335673
127	0x3e037a5a	0.12839642
128	0x3d53ab13	0.05167682
129	0xbe35921c	-0.17731518
130	0x3da3c0df	0.079957716
131	0x3e22c863	0.15896754
132	0xbde099c1	-0.10966826
133	0x3cdb10ec	0.026741467
134	0x3e387343	0.18012719
135	0xbc12ad3f	-0.008952438
136	0x3aaafc9a	0.0013045252
137	0x3d4a527f	0.04939508
138	0xb9053cb6	-0.00012706485
139	0x3aac6aac	0.0013154349
140	0xbc44d253	-0.012013036
141	0xbd0d7254	-0.03453286
142	0xbca111b1	-0.019661756
143	0xbd3b1c9a	-0.045681573
144	0xbdfcc7a1	-0.12342764
145	0x3e272025	0.16320856
146	0x3d7538db	0.059868675
147	0xbe2bc5e1	-0.16774704
148	0xbe05cd49	-0.13066591
149	0xbc61c1d8	-0.013779126
150	0x3cd25f0d	0.02568009
151	0x3d1c703a	0.038192965
152	0x3d27df6f	0.040984567
153	0xb9ba3fb7	-0.00035524156
154	0x3bfdf2b1	0.0077498783
155	0xbc4eb1c7	-0.012615628
156	0xbdcdcf9f	-0.10049366
157	0xbde198ae	-0.110154495
158	0x3e3144d4	0.17311412
159	0xbe195229	-0.14972748
160	0x3d12dde9	0.03585616
161	0x3daf984d	0.08573971
162	0x3cc75177	0.024330838
163	0x3e04f93c	0.129857
164	0x3da47f65	0.08032111
165	0x3e21567f	0.15755652
166	0xbd862b16	-0.06551187
167	0xbe293c63	-0.16526942
168	0xbb4863ef	-0.0030577143
169	0x3db60060	0.0888679
170	0xbe1b76c9	-0.15182032
171	0x3deafc85	0.114739455
172	0xbe000b15	-0.12504227
173	0xbda22a22	-0.079181924
174	0x3dadd732	0.08488311
175	0x3e0d82ff	0.13819502
176	0xbdd673ec	-0.10471329
177	0x3df72b4a	0.120688036
178	0xbc22dff3	-0.009941089
179	0xbb0bba12	-0.0021320623
180	0x3e24e30c	0.16102237
181	0xbde94e0e	-0.11391841
182	0xbda2d2f0	-0.079503894
183	0xbd0c15d5	-0.03420051
184	0xbd24c2c1	-0.040224794
185	0xbd2b003f	-0.04174828
186	0x3d7b6c3b	0.061382513
187	0xbd6ddd6e	-0.0580725
188	0xbd5fdd9f	-0.054654714
189	0x3dc4a042	0.09600879
190	0x3d31ed21	0.043439034
191	0x3dadb5c6	0.08481936
192	0x3d0a4d04	0.033764854
193	0xbd169447	-0.036762502
194	0xbe110b34	-0.1416443
195	0xbca6092f	-0.020268051
196	0xbda214e5	-0.079141416
197	0xbe127874	-0.14303762
198	0xbdf574f7	-0.119852
199	0xbe29e79b	-0.16592257
200	0xbe044584	-0.12917143
201	0xbd251bc1	-0.04030967
202	0x3d4e4849	0.050361905
203	0x3cfb8af5	0.030705908
204	0xbd67bc5e	-0.056576125
205	0x3dad160f	0.08451473
206	0xbdf2215d	-0.1182277
207	0xbd4222a2	-0.04739631
208	0xbe097dff	-0.1342697
209	0xbe28369d	-0.16427083
210	0xbdd9ac85	-0.106286086
211	0x3e2149f8	0.15750873
212	0x3df35fcf	0.118835084
213	0x3dac57c1	0.08415175
214	0xbd46d648	-0.0485442
215	0xbdf4d6f2	-0.1195506
216	0x3e072576	0.13197884
217	0x3cbf4cd7	0.02335207
218	0xbde89fea	-0.11358626
219	0x3e2e5a16	0.17026553
220	0xbda2122a	-0.07913621
221	0xbe250857	-0.16116463
222	0x3d638628	0.055547863
223	0xbe378a0c	-0.17923754
224	0x3d9b6b04	0.07588771
225	0xbdadd039	-0.08486981
226	0xbdab6057	-0.08367985
227	0xbcb78b88	-0.0224054
228	0xbe2d2eb7	-0.16912352
229	0xbd14e3ef	-0.036350187
230	0xbde504cc	-0.111825556
231	0xbd70fe3d	-0.05883621
232	0xbd5ba0e0	-0.05362022
233	0xbd16f746	-0.036856912
234	0x3d0b94e6	0.034077547
235	0xbdf72e9a	-0.120694354
236	0x3ba5520a	0.00504518
237	0xbdf43412	-0.11923994
238	0xbddfd1e3	-0.109287046
239	0x3ac4061c	0.0014955434
240	0x3e102679	0.14077176
241	0x3e33c3cd	0.17555161
242	0x3e41df2d	0.18932791
243	0x3e1ec29c	0.15503925
244	0xbc890a4d	-0.016728545
245	0xbccfc62a	-0.025363047
246	0x3df150a9	0.11782963
247	0x3d8554de	0.06510328
248	0xbe375203	-0.17902379
249	0x3c67f464	0.014157388
250	0xbe0dd733	-0.13851623
251	0x3dc60fa7	0.09670954
252	0xbdbd4903	-0.092424415
253	0xbb9e1a3b	-0.0048249043
254	0xbe0c4d29	-0.1370131
255	0x3d4e4a06	0.050363563

arith.constant2 f4 [32]
0	0xbf356234	-0.7085297
1	0xbf30601b	-0.68896645
2	0xbf2e0f7e	-0.6799239
3	0xbf206576	-0.6265482
4	0xbf232624	-0.6373007
5	0xbf2ecc64	-0.68280625
6	0xbf1ad46a	-0.6048037
7	0xbf1b1b3c	-0.6058843
8	0xbf1f6418	-0.62262106
9	0xbf2b1df3	-0.66842574
10	0xbf25de22	-0.6479207
11	0xbf2c221c	-0.67239547
12	0xbf2aefbf	-0.66772074
13	0xbf226be8	-0.634459
14	0xbf1131d4	-0.56716657
15	0xbf2e6002	-0.68115246
16	0xbf35f27b	-0.7107312
17	0xbf232d72	-0.6374122
18	0xbf15f00f	-0.58569425
19	0xbf2e3d75	-0.68062526
20	0xbf1102fd	-0.56645185
21	0xbf10baed	-0.56535226
22	0xbf2d3df9	-0.6767269
23	0xbf198587	-0.5996937
24	0xbf306685	-0.6890643
25	0xbf195172	-0.598899
26	0xbf2762db	-0.65385216
27	0xbf184de2	-0.5949384
28	0xbf33012b	-0.6992366
29	0xbf12b36d	-0.5730503
30	0xbf219bbb	-0.6312825
31	0xbf1d296b	-0.61391324

arith.constant3 f4 [32]
0	0x4002fc5b	2.0466526
1	0x3fe28b15	1.7698694
2	0x3fd1a4c6	1.637841
3	0x3fe6bad1	1.8025762
4	0x3ffe93a6	1.9888809
5	0x40049e48	2.0721607
6	0x3fe2c9fd	1.7717892
7	0x3fe2409d	1.7675968
8	0x3fc19e94	1.5126519
9	0x3fea6a5a	1.8313706
10	0x3ff844cf	1.9395999
11	0x3fe47308	1.7847605
12	0x3ff3c003	1.9042972
13	0x4007b318	2.120306
14	0x3fe745d0	1.806818
15	0x3fb90aa0	1.4456367
16	0x3ff4940f	1.9107684
17	0x3ff85c2d	1.940313
18	0x3fa9c785	1.3264014
19	0x3fe67920	1.8005714
20	0x3fb2a94b	1.3957914
21	0x3fd69546	1.6764305
22	0x40036bc9	2.0534537
23	0x3fe7963a	1.809272
24	0x3fdfb789	1.7477885
25	0x3fc04553	1.5021156
26	0x3feb9934	1.8406129
27	0x3fd09182	1.6294405
28	0x40065ddc	2.0994787
29	0x3fb5e150	1.4209385
30	0x3fe83bce	1.8143251
31	0x3fb31767	1.3991517

arith.constant4 f4 [32]
0	0xbf2b2f4e	-0.66869056
1	0xbf1cf907	-0.61317486
2	0xbf1471c8	-0.57986116
3	0xbf1454b2	-0.57941735
4	0xbf20b059	-0.62769085
5	0xbf3d3ffd	-0.73925763
6	0xbf380a5f	-0.71890825
7	0xbf10e2f0	-0.5659628
8	0xbf1c68dd	-0.6109751
9	0xbf10204a	-0.5629927
10	0xbf2beefe	-0.6716155
11	0xbf1fa97f	-0.62368006
12	0xbf1ba068	-0.60791636
13	0xbf2fff4c	-0.6874893
14	0xbf23ee54	-0.64035535
15	0xbf1b90ea	-0.60767996
16	0xbf28141e	-0.65655696
17	0xbf0e889b	-0.55677193
18	0xbf1c5ece	-0.6108216
19	0xbf19f66e	-0.60141647
20	0xbf4a411d	-0.79005605
21	0xbf1ba4f1	-0.60798556
22	0xbf3166ce	-0.6929749
23	0xbf1c3d96	-0.6103147
24	0xbf2c2e60	-0.6725826
25	0xbf16b7cc	-0.588742
26	0xbf17f88a	-0.59363616
27	0xbf334205	-0.7002261
28	0xbf3c5a58	-0.73575354
29	0xbf19997b	-0.5999982
30	0xbf3a1589	-0.7268911
31	0xbf2805a0	-0.65633583

arith.constant5 f4 [32]
0	0x3fe0c1c5	1.7559134
1	0x3fc2d0b4	1.5219941
2	0x3fc3b785	1.5290381
3	0x3f902d1b	1.1263765
4	0x3fa811b0	1.3130398
5	0x3fe82c85	1.8138586
6	0x3fd6cc32	1.6781065
7	0x400dfcdd	2.2185585
8	0x3feb963b	1.8405222
9	0x400cc2a1	2.1993792
10	0x3fbafef8	1.460906
11	0x3fb87c9f	1.4413031
12	0x3fe41c56	1.7821147
13	0x3fdeb20f	1.7398089
14	0x3fe8e986	1.8196266
15	0x3fd6bed0	1.6776981
16	0x3fdc00ca	1.7187741
17	0x4001f0db	2.0303257
18	0x3ff9410f	1.9472979
19	0x3f7c665b	0.9859368
20	0x3f6fd706	0.93687475
21	0x3fa673c2	1.3004076
22	0x3fbfbb09	1.4978954
23	0x3fa754fb	1.3072809
24	0x3f36a873	0.71350783
25	0x3ff24efd	1.8930355
26	0x3ffee1e5	1.9912688
27	0x3fc4f1a2	1.538624
28	0x3fc619aa	1.5476582
29	0x3fb28f26	1.3949935
30	0x3fc53275	1.5406023
31	0x3fef9b66	1.8719299

arith.constant6 f4 [16]
0	0xbde78c50	-0.11306059
1	0xbc8da53c	-0.017290704
2	0xbfd4f169	-1.6636173
3	0xbfa9c85f	-1.3264273
4	0xc01da9fe	-2.4635005
5	0xbe1011fd	-0.14069362
6	0xbd5be965	-0.05368938
7	0xbbd624da	-0.006535155
8	0xbbd89973	-0.0066100894
9	0xbc026ae9	-0.00796006
10	0xbe1796ee	-0.14803669
11	0xbb0a3a14	-0.0021091746
12	0xbd65dd2b	-0.056119125
13	0xbfbe0ad1	-1.4847051
14	0xbe76a5ac	-0.24086636
15	0xbfbec3b4	-1.4903474

arith.constant7 f4 [16]
0	0x41bd5ef6	23.671368
1	0x41ca5068	25.28926
2	0x4106e526	8.430944
3	0x41325b8b	11.147349
4	0x40936a99	4.6067624
5	0x41c80585	25.002695
6	0x41c40e77	24.507063
7	0x41cc2324	25.517159
8	0x41cd8733	25.691015
9	0x41cd3723	25.651922
10	0x41b7bf32	22.968357
11	0x41cc5e37	25.546003
12	0x41bcd8ba	23.605824
13	0x41659769	14.349465
14	0x41937729	18.433184
15	0x4125468d	10.329724

arith.constant8 f4 [16]
0	0xbf1d6c05	-0.6149295
1	0xbf18c3ac	-0.5967357
2	0xbf03c925	-0.514788
3	0xbf1e1383	-0.6174852
4	0xbeeba545	-0.46024528
5	0xbf30aab3	-0.69010466
6	0xbf0a2477	-0.5396189
7	0xbf387bf3	-0.7206413
8	0xbf0f66f0	-0.56016445
9	0xbeefee6c	-0.4686159
10	0xbf3e3fdc	-0.7431619
11	0xbf3935b8	-0.72347593
12	0xbf348d86	-0.7052845
13	0xbf1f27ae	-0.6216992
14	0xbf37a946	-0.71742666
15	0xbf35d5f9	-0.7102962

arith.constant9 f4 [16]
0	0x403b5278	2.9269085
1	0x4043d29c	3.0597296
2	0x4043d4d0	3.059864
3	0x409a06a1	4.813309
4	0x404052be	3.0050502
5	0x3fcf1f21	1.6181375
6	0x400107e9	2.0161078
7	0x403b4f7a	2.9267259
8	0x406441f3	3.5665252
9	0x4028237e	2.6271663
10	0x3fe16709	1.7609569
11	0x4007fb2f	2.124706
12	0x40b5da4a	5.6828966
13	0x3fcc5b74	1.5965409
14	0x401806b0	2.3754082
15	0x4037e04f	2.8730657

arith.constant11 f4 [64]
0	0x3b965e3a	0.0045888694
1	0x3af9ca2b	0.0019057443
2	0x3b797ac0	0.003806755
3	0x39de8ab5	0.00042446484
4	0xba33bf3a	-0.0006856803
5	0xb970f89a	-0.00022980795
6	0x3b806873	0.0039187013
7	0x3b018656	0.0019763908
8	0x3884aef3	6.326837e-05
9	0x3b3103b1	0.0027010257
10	0xbbad158b	-0.005282109
11	0x3b131ecf	0.0022448783
12	0x3ba1a8ce	0.004933453
13	0x3b98d290	0.004663773
14	0xbb0e8c8f	-0.002175126
15	0xba877571	-0.0010334683
16	0x3b27f95e	0.0025630812
17	0x3bae7afe	0.0053247204
18	0x3b1e6bea	0.0024173209
19	0x3a61efbf	0.0008618794
20	0xbb074cdd	-0.002064518
21	0x3a5bcfcc	0.0008385151
22	0x3b0086df	0.001961164
23	0x3a9ccd65	0.0011963068
24	0x3b5e594a	0.0033927732
25	0xb78dffb0	-1.6927574e-05
26	0x3b74d5ba	0.0037358836
27	0x3b5a2909	0.003328862
28	0xbb992e35	-0.0046746978
29	0x3a8a472d	0.0010549776
30	0xbbad2fe0	-0.005285248
31	0x3bae631d	0.005321874
32	0x3ba4af7c	0.005025802
33	0xb98a843b	-0.0002641993
34	0x3b309c88	0.0026948769
35	0x3adac3db	0.001669045
36	0x3b04da0e	0.0020271572
37	0x3a96d660	0.001150798
38	0x3ae16fe3	0.0017199483
39	0x3ad51038	0.0016255444
40	0x39804fbe	0.00024473475
41	0x3b5bb099	0.0033522008
42	0x3b85f95b	0.0040885634
43	0xba499d05	-0.0007690939
44	0x3b3f576a	0.002919639
45	0xbc059512	-0.008153217
46	0x3b50cd32	0.0031860587
47	0x3b3ac230	0.0028497092
48	0x3a96dfcb	0.0011510787
49	0xbb59c7b9	-0.0033230616
50	0x3b7391a7	0.0037165673
51	0xba550ad8	-0.0008126921
52	0x3b2776be	0.0025552954
53	0xbb280a54	-0.0025640922
54	0xbb042cd5	-0.0020168324
55	0x3a9c0de0	0.001190599
56	0x3a9b51f4	0.0011849985
57	0x3b49c3d7	0.0030786896
58	0xba08e0e8	-0.0005221502
59	0x3b5e385f	0.0033908112
60	0x3aae675c	0.001330595
61	0x3ac06fcd	0.0014681757
62	0x3a3172bf	0.00067691127
63	0x39b09322	0.00033678958

arith.constant12 f4 [32]
0	0xbadd3369	-0.0016876283
1	0x3a2ba3fd	0.00065475685
2	0xbb3c8c92	-0.002877031
3	0xbba827ea	-0.0051317113
4	0xba889609	-0.001042069
5	0x3a280f77	0.0006410996
6	0x3b03a270	0.0020085834
7	0x3ba63d95	0.005073259
8	0xba66c6d9	-0.00088034343
9	0x3b13f650	0.0022577234
10	0x39c5718e	0.00037659373
11	0xb99efc21	-0.0003032396
12	0xb985287e	-0.00025397906
13	0x3b12a0b9	0.002237363
14	0xbba65131	-0.0050755967
15	0xbb198936	-0.0023427731
16	0x3bbb7386	0.0057205586
17	0xbb678f7d	-0.0035333328
18	0x3b31cf2b	0.0027131538
19	0xbb7cc456	-0.0038569174
20	0xbb30f416	-0.0027000955
21	0xba89d920	-0.0010516979
22	0x3b80567e	0.0039165607
23	0x3b7c2366	0.0038473248
24	0x3a563941	0.00081719836
25	0xbaff2549	-0.0019466068
26	0x3b83138e	0.004000134
27	0x3ba2f98c	0.004973596
28	0x3b721a50	0.0036941953
29	0xba2b6715	-0.0006538493
30	0xbb4a4dc6	-0.003086911
31	0xbbd4ac50	-0.006490268

arith.constant13 f4 [32]
0	0xbba7451c	-0.005104674
1	0x3b784c25	0.0037887183
2	0x3980aace	0.00024541322
3	0x395a61d2	0.00020826541
4	0xb9c4ae0a	-0.00037513702
5	0x3ac41d57	0.0014962357
6	0x3b23e4df	0.0025008244
7	0xbb22c484	-0.002483637
8	0xba689070	-0.00088716205
9	0xbb8a23be	-0.0042156866
10	0xba67e42d	-0.00088459515
11	0x396a7b1a	0.00022361838
12	0x3b976463	0.0046201213
13	0x3b28e362	0.0025770296
14	0x39fe9e26	0.00048564485
15	0x3a7f7dd9	0.0009746231
16	0xb836723e	-4.3498578e-05
17	0xbb5e95f2	-0.0033963886
18	0x3b20a870	0.002451446
19	0xbb882057	-0.004154246
20	0xbb800a94	-0.003907511
21	0x3b2b4533	0.0026133775
22	0xbb1033f9	-0.0022003634
23	0x3af57c12	0.0018728992
24	0xbb513eee	-0.0031928378
25	0x3b933374	0.0044922177
26	0xbbad5ef9	-0.0052908626
27	0x3c19ed5d	0.009394971
28	0xbb4268ae	-0.0029664445
29	0xb91c6886	-0.00014916257
30	0x3b03f6a5	0.0020136025
31	0x3b7c11c5	0.003846274

arith.constant14 f4 [16]
0	0x3b2c88f3	0.0026326745
1	0x3b5d2546	0.003374414
2	0x3bc135c0	0.0058963
3	0x3b7db643	0.0038713373
4	0xbb5cd386	-0.0033695414
5	0x3a9bffa8	0.0011901753
6	0xb99e2a95	-0.00030167834
7	0x3a73da41	0.0009302237
8	0x3b873c34	0.00412705
9	0xbaedee1b	-0.0018152626
10	0xbb85fd4a	-0.0040890323
11	0xb9c9c6ed	-0.0003848592
12	0xbb214de5	-0.002461308
13	0x3b60900e	0.003426555
14	0xbc330cd2	-0.01092835
15	0xbb85d955	-0.004084746

arith.constant15 f4 [2, 64]
0	0xbcdbc6eb	-0.02682825
1	0xbda131b7	-0.078708105
2	0x3db27da2	0.08715369
3	0xbe0345b8	-0.12819564
4	0xbe3c2108	-0.18371975
5	0x3e1ea322	0.15491918
6	0x3da6bb69	0.081412144
7	0xbe0eef6e	-0.13958523
8	0x3bb09ed1	0.005390026
9	0xbdab66ef	-0.083692424
10	0x3d2da96a	0.042397894
11	0xbd384ca8	-0.04499498
12	0x3e032f13	0.12810926
13	0xbd27689b	-0.040871244
14	0xbe0bbde2	-0.13646653
15	0xbe06956e	-0.1314294
16	0x3e048b27	0.12943707
17	0x3e208f78	0.15679729
18	0xbdee80d4	-0.11645666
19	0xbdf8a651	-0.12141097
20	0x3dd84bd1	0.10561336
21	0x3e1457c7	0.1448661
22	0xbd8a8214	-0.06763092
23	0xbc13e3fa	-0.009026522
24	0xbdd40d00	-0.10354042
25	0xbdef125c	-0.11673424
26	0x3d822475	0.0635461
27	0x3d196efd	0.037459362
28	0xc07ccb72	-3.9499173
29	0xbdbfe9ac	-0.09370741
30	0x3fbfa450	1.4972019
31	0x3da545dd	0.08069966
32	0xbc7fbf0f	-0.015609517
33	0x3e45cf83	0.1931744
34	0xbdccd761	-0.10002018
35	0x3d7f05cb	0.062261384
36	0x3c613ee6	0.013747906
37	0xbdd9ba20	-0.10631204
38	0xbd7c6ee0	-0.061629176
39	0x3d82c3bf	0.06384992
40	0xbd893a3f	-0.06700563
41	0x3dfab321	0.122411974
42	0x3d496e39	0.049177382
43	0xbdb4c529	-0.08826668
44	0x3da86c10	0.08223736
45	0x3f1ea52c	0.6197078
46	0x3e50da78	0.20395839
47	0xbdd3e741	-0.103468426
48	0x3d6fbe03	0.05853082
49	0x3ecd08c7	0.4004576
50	0x3d845aec	0.064626545
51	0xbd175311	-0.036944453
52	0xbda436d1	-0.08018268
53	0xbdb31a83	-0.08745291
54	0x3f9c6cbe	1.2220685
55	0x3e6750a5	0.22589357
56	0x3e358c02	0.1772919
57	0xbde0db7e	-0.10979365
58	0x3e1baa28	0.15201628
59	0x3e0ea1e7	0.13928948
60	0xbd924723	-0.071424745
61	0xbdcedc75	-0.101006426
62	0x3e49e874	0.1971758
63	0x3e0c3a05	0.13694008
64	0x3d48f65b	0.049063068
65	0x3dcdc69c	0.10047647
66	0xbd06c8e9	-0.032906447
67	0xbcbd2d3b	-0.023092857
68	0xbc4a5566	-0.012349462
69	0x3b5e46e8	0.0033916775
70	0x3c8cb349	0.017175334
71	0x3d77563d	0.060384978
72	0x3db35cae	0.087579116
73	0xbe3dde8f	-0.1854193
74	0x3d907f67	0.0705555
75	0x3ddbeb1c	0.10738203
76	0xbe057449	-0.1303264
77	0xbe044e09	-0.12920393
78	0xbe220a30	-0.15824199
79	0xbed6d3f6	-0.41958588
80	0xbc4720e5	-0.012153839
81	0x3bc77c6a	0.0060878294
82	0xbd05698a	-0.032571353
83	0xbc69315b	-0.014232959
84	0x3d8718a8	0.065965
85	0xbe936dea	-0.28794795
86	0xbc3d9b58	-0.011572681
87	0x3d8e86f6	0.069593355
88	0x3de27b14	0.110586315
89	0xbd5927eb	-0.053016584
90	0xbe22bfdf	-0.15893506
91	0xbe2e1bee	-0.17002842
92	0xc0872ae2	-4.2239847
93	0x3d707876	0.05870863
94	0xbf463c55	-0.7743581
95	0xbde5d099	-0.112214275
96	0xbd80b786	-0.06285004
97	0xbe5e83d0	-0.2172997
98	0xbd58a70f	-0.052893694
99	0x3dafa310	0.085760236
100	0x3de85280	0.113438606
101	0x3ded83db	0.11597415
102	0x3cf1c537	0.029512985
103	0xbe259473	-0.1616991
104	0x3de5d242	0.11221744
105	0x3d34a5ef	0.04410356
106	0xbc0850dc	-0.00832006
107	0x3d2b69eb	0.041849058
108	0x3dfdab4d	0.12386189
109	0x3ee67e36	0.45018166
110	0x3ddecf40	0.108793736
111	0xbdd21c45	-0.10259298
112	0x3e08f6ef	0.13375448
113	0x3efa8a35	0.4893357
114	0xbbacbe81	-0.0052717333
115	0x3e2294ea	0.15877119
116	0x3dcd56bd	0.1002631
117	0xbd438995	-0.04773863
118	0xbfb213a9	-1.391225
119	0xbdc9f6ec	-0.0986155
120	0x3be2ad5a	0.006917638
121	0xbc9239e2	-0.017849866
122	0xbe6a5a67	-0.22886048
123	0xbc900af9	-0.017583357
124	0x3d2513d9	0.04030213
125	0xbda067bb	-0.07832285
126	0x3e2aee29	0.16692413
127	0x3e10e21c	0.14148754

arith.constant16 f4 [2]
0	0x3ff05dbc	1.8778605
1	0xc028b877	-2.6362588

tfl.pseudo_qconst i1 [32, 3, 3, 32]
0	0x21	33
1	0x38	56
2	0xd1	-47
3	0x21	33
4	0x95	-107
5	0x3e	62
6	0x5a	90
7	0xc6	-58
8	0xee	-18
9	0x7f	127
10	0xca	-54
11	0xc8	-56
12	0x61	97
13	0x57	87
14	0x17	23
15	0x12	18
16	0x32	50
17	0x8e	-114
18	0x2f	47
19	0xb0	-80
20	0x8d	-115
21	0xbb	-69
22	0xd5	-43
23	0xf8	-8
24	0xf3	-13
25	0xc4	-60
26	0xe2	-30
27	0x64	100
28	0x44	68
29	0x3a	58
30	0x8f	-113
31	0x5f	95
32	0x8e	-114
33	0xe4	-28
34	0x1c	28
35	0x53	83
36	0x76	118
37	0x7d	125
38	0x37	55
39	0x10	16
40	0x18	24
41	0x53	83
42	0xc4	-60
43	0x14	20
44	0xf3	-13
45	0xe3	-29
46	0x32	50
47	0xb7	-73
48	0x12	18
49	0x76	118
50	0xfd	-3
51	0x98	-104
52	0x74	116
53	0x9b	-101
54	0x90	-112
55	0x61	97
56	0x0c	12
57	0x49	73
58	0xec	-20
59	0xbf	-65
60	0x74	116
61	0xfa	-6
62	0xfa	-6
63	0xc7	-57
64	0x5b	91
65	0xc7	-57
66	0x07	7
67	0x94	-108
68	0x4f	79
69	0x1c	28
70	0xbe	-66
71	0x00	0
72	0xb9	-71
73	0xee	-18
74	0x9e	-98
75	0x79	121
76	0x7d	125
77	0x4f	79
78	0x37	55
79	0x8d	-115
80	0xf8	-8
81	0x9b	-101
82	0x77	119
83	0xa1	-95
84	0x32	50
85	0x12	18
86	0x98	-104
87	0x37	55
88	0x42	66
89	0xa9	-87
90	0x02	2
91	0x75	117
92	0x71	113
93	0x74	116
94	0x31	49
95	0x8f	-113
96	0x33	51
97	0x1b	27
98	0x93	-109
99	0xcd	-51
100	0x72	114
101	0x8c	-116
102	0x08	8
103	0x9d	-99
104	0x4c	76
105	0xa8	-88
106	0x95	-107
107	0xcc	-52
108	0x6d	109
109	0x8a	-118
110	0x0b	11
111	0x61	97
112	0xf7	-9
113	0xbe	-66
114	0xde	-34
115	0x4f	79
116	0x1b	27
117	0xd2	-46
118	0x16	22
119	0xaa	-86
120	0xd3	-45
121	0xf1	-15
122	0xea	-22
123	0x39	57
124	0xae	-82
125	0x91	-111
126	0xac	-84
127	0xe2	-30
128	0x91	-111
129	0x01	1
130	0xb1	-79
131	0x37	55
132	0x09	9
133	0xc1	-63
134	0x75	117
135	0xae	-82
136	0x43	67
137	0x1d	29
138	0x51	81
139	0xa5	-91
140	0x25	37
141	0x49	73
142	0xcb	-53
143	0xd4	-44
144	0x30	48
145	0xbe	-66
146	0x15	21
147	0x68	104
148	0xe1	-31
149	0xd7	-41
150	0x29	41
151	0x08	8
152	0xe3	-29
153	0xea	-22
154	0x51	81
155	0x9b	-101
156	0xdb	-37
157	0x47	71
158	0xa9	-87
159	0xd8	-40
160	0x27	39
161	0x40	64
162	0xda	-38
163	0x9e	-98
164	0x08	8
165	0x25	37
166	0x0b	11
167	0x62	98
168	0xfb	-5
169	0x7d	125
170	0x83	-125
171	0xeb	-21
172	0x68	104
173	0x25	37
174	0x0c	12
175	0x49	73
176	0x2f	47
177	0x93	-109
178	0xe2	-30
179	0xcf	-49
180	0xbd	-67
181	0x44	68
182	0x82	-126
183	0xb3	-77
184	0xe1	-31
185	0x33	51
186	0x88	-120
187	0xf2	-14
188	0xf2	-14
189	0x00	0
190	0x0a	10
191	0xa2	-94
192	0x9e	-98
193	0xa4	-92
194	0x72	114
195	0xad	-83
196	0x37	55
197	0xb0	-80
198	0xcf	-49
199	0xcd	-51
200	0x2c	44
201	0xb1	-79
202	0xda	-38
203	0x50	80
204	0x11	17
205	0x98	-104
206	0x9d	-99
207	0xfd	-3
208	0xbb	-69
209	0xb7	-73
210	0xab	-85
211	0x38	56
212	0x64	100
213	0x0a	10
214	0xc5	-59
215	0xdd	-35
216	0xc9	-55
217	0x72	114
218	0x36	54
219	0xc3	-61
220	0x47	71
221	0x49	73
222	0x61	97
223	0x63	99
224	0x48	72
225	0x7c	124
226	0x9c	-100
227	0x27	39
228	0xf6	-10
229	0xa0	-96
230	0x18	24
231	0x50	80
232	0x2a	42
233	0x21	33
234	0xee	-18
235	0xa5	-91
236	0x47	71
237	0xcc	-52
238	0x3b	59
239	0x65	101
240	0xdb	-37
241	0xdf	-33
242	0xd3	-45
243	0x83	-125
244	0xc2	-62
245	0xf4	-12
246	0xc3	-61
247	0x07	7
248	0x18	24
249	0xf4	-12
250	0xf1	-15
251	0xce	-50
252	0x69	105
253	0x0e	14
254	0x05	5
255	0xf8	-8

tfl.pseudo_qconst1 i1 [32, 3, 3, 16]
0	0x59	89
1	0x20	32
2	0x9b	-101
3	0xff	-1
4	0x2f	47
5	0xdb	-37
6	0x90	-112
7	0xc4	-60
8	0x89	-119
9	0x97	-105
10	0x12	18
11	0x48	72
12	0x83	-125
13	0x9f	-97
14	0xcd	-51
15	0xb4	-76
16	0xb7	-73
17	0x89	-119
18	0x44	68
19	0x3e	62
20	0x24	36
21	0x8c	-116
22	0xff	-1
23	0xda	-38
24	0x92	-110
25	0x48	72
26	0x0c	12
27	0xe1	-31
28	0xa8	-88
29	0x5a	90
30	0x0f	15
31	0xdf	-33
32	0x13	19
33	0x81	-127
34	0xf3	-13
35	0x45	69
36	0x3a	58
37	0x93	-109
38	0xd8	-40
39	0x6d	109
40	0xc2	-62
41	0x31	49
42	0x5e	94
43	0x5d	93
44	0x70	112
45	0xb3	-77
46	0xc2	-62
47	0x5d	93
48	0x4f	79
49	0x71	113
50	0xaa	-86
51	0xb9	-71
52	0x2f	47
53	0x17	23
54	0x42	66
55	0xa8	-88
56	0xca	-54
57	0x73	115
58	0xf2	-14
59	0x75	117
60	0x21	33
61	0xf0	-16
62	0x10	16
63	0xd9	-39
64	0xb9	-71
65	0x04	4
66	0x41	65
67	0xee	-18
68	0x2b	43
69	0xaf	-81
70	0x10	16
71	0x41	65
72	0xd1	-47
73	0x64	100
74	0x56	86
75	0xdb	-37
76	0xe0	-32
77	0xa1	-95
78	0xf5	-11
79	0x44	68
80	0xa8	-88
81	0x19	25
82	0x06	6
83	0xac	-84
84	0x54	84
85	0x97	-105
86	0x74	116
87	0xda	-38
88	0xa4	-92
89	0xeb	-21
90	0x0f	15
91	0x61	97
92	0x90	-112
93	0xe1	-31
94	0xad	-83
95	0x44	68
96	0x19	25
97	0x43	67
98	0xe6	-26
99	0x2d	45
100	0xbd	-67
101	0x22	34
102	0xfc	-4
103	0xec	-20
104	0x95	-107
105	0x21	33
106	0x7d	125
107	0xf7	-9
108	0x31	49
109	0x35	53
110	0x49	73
111	0x23	35
112	0xcf	-49
113	0x45	69
114	0xed	-19
115	0x52	82
116	0x21	33
117	0xce	-50
118	0x24	36
119	0xec	-20
120	0x5d	93
121	0x46	70
122	0xe0	-32
123	0x8c	-116
124	0xdb	-37
125	0xa2	-94
126	0xdb	-37
127	0xf5	-11
128	0xcc	-52
129	0x73	115
130	0x99	-103
131	0xb9	-71
132	0x41	65
133	0xfb	-5
134	0xe3	-29
135	0x01	1
136	0xe7	-25
137	0xc8	-56
138	0x4e	78
139	0x0b	11
140	0x9a	-102
141	0x49	73
142	0x59	89
143	0xbe	-66
144	0x8f	-113
145	0x29	41
146	0xa8	-88
147	0x46	70
148	0xfc	-4
149	0xee	-18
150	0xcd	-51
151	0xc3	-61
152	0x59	89
153	0x55	85
154	0xaf	-81
155	0x4b	75
156	0xec	-20
157	0xc4	-60
158	0x21	33
159	0x68	104
160	0xf6	-10
161	0x15	21
162	0xbe	-66
163	0xb9	-71
164	0xfd	-3
165	0xd7	-41
166	0x8d	-115
167	0x5a	90
168	0x28	40
169	0x5d	93
170	0x9a	-102
171	0xa3	-93
172	0xb1	-79
173	0xde	-34
174	0xe1	-31
175	0xe4	-28
176	0xec	-20
177	0xf2	-14
178	0x39	57
179	0x25	37
180	0x10	16
181	0x93	-109
182	0x93	-109
183	0xd6	-42
184	0x44	68
185	0xa0	-96
186	0xb8	-72
187	0x5f	95
188	0x77	119
189	0xc1	-63
190	0xe7	-25
191	0x44	68
192	0x62	98
193	0x8f	-113
194	0x73	115
195	0xb9	-71
196	0x97	-105
197	0x66	102
198	0x13	19
199	0x8a	-118
200	0x0b	11
201	0x48	72
202	0x20	32
203	0x62	98
204	0x18	24
205	0x0b	11
206	0x5e	94
207	0x10	16
208	0x30	48
209	0x09	9
210	0xf9	-7
211	0x3b	59
212	0xbd	-67
213	0x95	-107
214	0x77	119
215	0x40	64
216	0x7c	124
217	0x77	119
218	0xd8	-40
219	0x14	20
220	0xfe	-2
221	0x74	116
222	0xbe	-66
223	0x2b	43
224	0x00	0
225	0x32	50
226	0x9d	-99
227	0x76	118
228	0xc0	-64
229	0xe5	-27
230	0x87	-121
231	0x1b	27
232	0x42	66
233	0xa2	-94
234	0x1c	28
235	0x00	0
236	0xdb	-37
237	0xc0	-64
238	0x6c	108
239	0x81	-127
240	0x8a	-118
241	0x68	104
242	0x2c	44
243	0x1f	31
244	0x55	85
245	0x59	89
246	0x32	50
247	0xfc	-4
248	0xc8	-56
249	0xd2	-46
250	0xae	-82
251	0x4f	79
252	0x95	-107
253	0x54	84
254	0x28	40
255	0x27	39

tfl.pseudo_qconst2 i1 [16, 3, 3, 16]
0	0xc3	-61
1	0x49	73
2	0x61	97
3	0x24	36
4	0xdc	-36
5	0x3d	61
6	0x3b	59
7	0xe7	-25
8	0xce	-50
9	0x24	36
10	0x2f	47
11	0xe9	-23
12	0x96	-106
13	0x5e	94
14	0x48	72
15	0xfc	-4
16	0xe1	-31
17	0x5e	94
18	0x70	112
19	0x6d	109
20	0x0d	13
21	0xbf	-65
22	0xb2	-78
23	0xc3	-61
24	0x43	67
25	0xa8	-88
26	0x81	-127
27	0xf6	-10
28	0x5a	90
29	0xb0	-80
30	0xe3	-29
31	0x2b	43
32	0xf5	-11
33	0xe0	-32
34	0x42	66
35	0xc3	-61
36	0x2c	44
37	0x68	104
38	0x70	112
39	0xc1	-63
40	0xb8	-72
41	0x24	36
42	0x09	9
43	0xe2	-30
44	0x83	-125
45	0x69	105
46	0x45	69
47	0x3c	60
48	0xb1	-79
49	0x5f	95
50	0xa5	-91
51	0x56	86
52	0xeb	-21
53	0x5a	90
54	0x91	-111
55	0x9d	-99
56	0x15	21
57	0xaa	-86
58	0x0c	12
59	0xaa	-86
60	0xb4	-76
61	0xb8	-72
62	0x7d	125
63	0xcd	-51
64	0x52	82
65	0x85	-123
66	0x45	69
67	0xa6	-90
68	0x79	121
69	0xe3	-29
70	0xbd	-67
71	0xad	-83
72	0xc3	-61
73	0x1a	26
74	0x15	21
75	0xda	-38
76	0x67	103
77	0x68	104
78	0xae	-82
79	0xc9	-55
80	0xb3	-77
81	0x2b	43
82	0xc6	-58
83	0xda	-38
84	0x08	8
85	0x3a	58
86	0x12	18
87	0x39	57
88	0x8f	-113
89	0x83	-125
90	0xe4	-28
91	0x15	21
92	0x6d	109
93	0x71	113
94	0x7d	125
95	0xdf	-33
96	0x56	86
97	0x96	-106
98	0x56	86
99	0xbf	-65
100	0x0c	12
101	0x9e	-98
102	0xe4	-28
103	0x5e	94
104	0xe9	-23
105	0x91	-111
106	0x21	33
107	0x4f	79
108	0x7a	122
109	0xe5	-27
110	0x13	19
111	0xea	-22
112	0xd2	-46
113	0xd9	-39
114	0x13	19
115	0x0f	15
116	0xce	-50
117	0xde	-34
118	0xcc	-52
119	0xc3	-61
120	0x57	87
121	0xd4	-44
122	0x15	21
123	0x8d	-115
124	0xf3	-13
125	0x3a	58
126	0xe7	-25
127	0xc0	-64
128	0xde	-34
129	0x59	89
130	0x02	2
131	0x18	24
132	0xea	-22
133	0x93	-109
134	0x4d	77
135	0xde	-34
136	0x8c	-116
137	0x74	116
138	0x59	89
139	0x61	97
140	0xff	-1
141	0x3f	63
142	0x85	-123
143	0xe9	-23
144	0x58	88
145	0x85	-123
146	0x27	39
147	0xb3	-77
148	0x5b	91
149	0x85	-123
150	0x9d	-99
151	0x0c	12
152	0x45	69
153	0x56	86
154	0xea	-22
155	0xc6	-58
156	0x1a	26
157	0x3a	58
158	0x0d	13
159	0x34	52
160	0xe6	-26
161	0x2d	45
162	0x16	22
163	0xe4	-28
164	0x4c	76
165	0xd7	-41
166	0x64	100
167	0x71	113
168	0x2a	42
169	0xc6	-58
170	0x13	19
171	0x54	84
172	0x72	114
173	0x70	112
174	0x22	34
175	0x6e	110
176	0x34	52
177	0x41	65
178	0xcc	-52
179	0xcb	-53
180	0xcd	-51
181	0x94	-108
182	0xe5	-27
183	0x4f	79
184	0x23	35
185	0x3e	62
186	0xe1	-31
187	0x4f	79
188	0xda	-38
189	0x43	67
190	0xe0	-32
191	0x8f	-113
192	0x54	84
193	0x43	67
194	0xe2	-30
195	0xa6	-90
196	0xb5	-75
197	0x5f	95
198	0xf1	-15
199	0x91	-111
200	0x85	-123
201	0x84	-124
202	0x22	34
203	0x96	-106
204	0x17	23
205	0xd6	-42
206	0x67	103
207	0x4d	77
208	0xec	-20
209	0xe0	-32
210	0x58	88
211	0x8b	-117
212	0x8f	-113
213	0xa1	-95
214	0xa7	-89
215	0x01	1
216	0x2e	46
217	0x85	-123
218	0xeb	-21
219	0xd7	-41
220	0xe2	-30
221	0xf4	-12
222	0x14	20
223	0x48	72
224	0xef	-17
225	0x4b	75
226	0x65	101
227	0xa9	-87
228	0x02	2
229	0x60	96
230	0x65	101
231	0x0e	14
232	0xbb	-69
233	0x81	-127
234	0x5e	94
235	0x42	66
236	0xb6	-74
237	0x96	-106
238	0xa4	-92
239	0xcb	-53
240	0xf9	-7
241	0x0b	11
242	0x3a	58
243	0x52	82
244	0x3e	62
245	0x9d	-99
246	0x15	21
247	0xa1	-95
248	0xc3	-61
249	0x0f	15
250	0xce	-50
251	0x9e	-98
252	0xf7	-9
253	0x0d	13
254	0x0f	15
255	0x4e	78

tfl.pseudo_qconst3 i1 [64, 2048]
0	0xd7	-41
1	0x18	24
2	0x65	101
3	0x0d	13
4	0x15	21
5	0x00	0
6	0xf4	-12
7	0x41	65
8	0x0a	10
9	0x6d	109
10	0xb8	-72
11	0xb4	-76
12	0xf7	-9
13	0x13	19
14	0x33	51
15	0x0b	11
16	0x52	82
17	0xec	-20
18	0xef	-17
19	0x61	97
20	0xf6	-10
21	0xc7	-57
22	0x37	55
23	0xed	-19
24	0x17	23
25	0xf7	-9
26	0xcb	-53
27	0xbd	-67
28	0x1e	30
29	0xd7	-41
30	0x62	98
31	0xb2	-78
32	0x98	-104
33	0xc2	-62
34	0xbf	-65
35	0x50	80
36	0xc2	-62
37	0x4b	75
38	0x19	25
39	0xa6	-90
40	0xc4	-60
41	0xf2	-14
42	0x0b	11
43	0x96	-106
44	0xc5	-59
45	0x3a	58
46	0xdc	-36
47	0xa4	-92
48	0x5b	91
49	0xae	-82
50	0x07	7
51	0xc9	-55
52	0x11	17
53	0xba	-70
54	0xe2	-30
55	0xa0	-96
56	0xb2	-78
57	0xd7	-41
58	0xdf	-33
59	0xfd	-3
60	0x4a	74
61	0xc6	-58
62	0xe2	-30
63	0x79	121
64	0x0e	14
65	0x4d	77
66	0xaa	-86
67	0x69	105
68	0xc6	-58
69	0x29	41
70	0xdf	-33
71	0x59	89
72	0xb0	-80
73	0xfa	-6
74	0xa3	-93
75	0x00	0
76	0x6b	107
77	0x3e	62
78	0xfa	-6
79	0xb0	-80
80	0xb3	-77
81	0x6f	111
82	0x4d	77
83	0xf1	-15
84	0x15	21
85	0xc5	-59
86	0xf0	-16
87	0xcf	-49
88	0x3e	62
89	0xfc	-4
90	0x09	9
91	0x3b	59
92	0x0e	14
93	0xcf	-49
94	0xf4	-12
95	0x01	1
96	0xa9	-87
97	0x14	20
98	0x63	99
99	0xfd	-3
100	0xcb	-53
101	0x05	5
102	0xab	-85
103	0xce	-50
104	0x4f	79
105	0x9d	-99
106	0xc2	-62
107	0x2f	47
108	0x42	66
109	0xf0	-16
110	0x71	113
111	0xc5	-59
112	0x6f	111
113	0x40	64
114	0x45	69
115	0x3a	58
116	0xdb	-37
117	0xc8	-56
118	0xda	-38
119	0xac	-84
120	0xe2	-30
121	0xeb	-21
122	0x4c	76
123	0x3f	63
124	0x6d	109
125	0xab	-85
126	0x7a	122
127	0x2f	47
128	0x62	98
129	0xf5	-11
130	0xd8	-40
131	0xe7	-25
132	0x9c	-100
133	0xcc	-52
134	0xb7	-73
135	0xd3	-45
136	0xab	-85
137	0x68	104
138	0xa8	-88
139	0x54	84
140	0x13	19
141	0xa1	-95
142	0x63	99
143	0x2e	46
144	0x32	50
145	0x54	84
146	0xa9	-87
147	0xc1	-63
148	0xf2	-14
149	0x3e	62
150	0x93	-109
151	0xe3	-29
152	0x00	0
153	0xe9	-23
154	0x3c	60
155	0xef	-17
156	0x33	51
157	0xb4	-76
158	0x2c	44
159	0xa7	-89
160	0x18	24
161	0xf4	-12
162	0xa1	-95
163	0x60	96
164	0xce	-50
165	0x3a	58
166	0x3d	61
167	0x3f	63
168	0xe3	-29
169	0x17	23
170	0xb0	-80
171	0xdc	-36
172	0x6d	109
173	0xb5	-75
174	0xac	-84
175	0xa3	-93
176	0xca	-54
177	0x9f	-97
178	0x4e	78
179	0xef	-17
180	0xa3	-93
181	0xd8	-40
182	0xbe	-66
183	0x1d	29
184	0xeb	-21
185	0xb4	-76
186	0xd3	-45
187	0x3d	61
188	0xb7	-73
189	0x67	103
190	0x18	24
191	0xc2	-62
192	0xd8	-40
193	0x2d	45
194	0x50	80
195	0x91	-111
196	0xbc	-68
197	0x4b	75
198	0xee	-18
199	0x47	71
200	0xfa	-6
201	0x4d	77
202	0xda	-38
203	0x3c	60
204	0xe4	-28
205	0x7c	124
206	0x44	68
207	0x60	96
208	0x22	34
209	0x36	54
210	0x98	-104
211	0xbe	-66
212	0x3e	62
213	0x99	-103
214	0xd5	-43
215	0x0f	15
216	0xb4	-76
217	0x64	100
218	0x0c	12
219	0xc6	-58
220	0x29	41
221	0x69	105
222	0x4f	79
223	0xef	-17
224	0x37	55
225	0xc8	-56
226	0x2c	44
227	0xd2	-46
228	0x25	37
229	0x4f	79
230	0x38	56
231	0x69	105
232	0x23	35
233	0xfd	-3
234	0x57	87
235	0x52	82
236	0x47	71
237	0xc7	-57
238	0xb2	-78
239	0x28	40
240	0xd5	-43
241	0xab	-85
242	0x52	82
243	0x07	7
244	0xbc	-68
245	0x61	97
246	0x2d	45
247	0xa2	-94
248	0x0f	15
249	0x27	39
250	0xe2	-30
251	0xa7	-89
252	0xd3	-45
253	0xc0	-64
254	0x27	39
255	0x42	66
