new_version/liveness_model.tflite (tflite, 158376 bytes, 20 tensors)

arith.constant f4 [16]
0	0xbb515a0e	-0.0031944546
1	0xba64d52c	-0.0008729275
2	0x3b3f9034	0.002923024
3	0xbb29b250	-0.0025893636
4	0x3bcac202	0.0061876783
5	0xbb42f3a9	-0.0029747284
6	0x3b89e364	0.0042080153
7	0xba2fae0f	-0.0006701657
8	0x3a6080c1	0.00085641077
9	0x3975a024	0.00023424678
10	0xbbd5cb51	-0.0065244813
11	0xbb8a1bc0	-0.004214734
12	0xbbd52f96	-0.006505917
13	0x3a426453	0.0007415462
14	0x3b86195b	0.004092378
15	0xb979cad4	-0.0002382205

arith.constant1 f4 [16, 3, 3, 3]
0	0xbe03c25d	-0.12867112
1	0xbd628347	-0.055300977
2	0x3e0ed189	0.13947119
3	0xbdc2367a	-0.09483047
4	0x3dd05b71	0.10173691
5	0x3df0a0b7	0.11749404
6	0x3dc6ee8c	0.09713468
7	0x3e096412	0.1341708
8	0xbe0a5437	-0.13508688
9	0x3d90a181	0.070620544
10	0xbcdc17f5	-0.026866892
11	0xbe3a4a30	-0.18192363
12	0x3d11783c	0.035515055
13	0xbd8d70e6	-0.06906299
14	0xbd1177f5	-0.03551479
15	0x3e21fe5f	0.15819691
16	0xbe2272e7	-0.15864144
17	0x3ca0b5bb	0.019617906
18	0xbe06adc4	-0.13152224
19	0xbe1cd8e0	-0.15317106
20	0x3d2d2fc9	0.0422819
21	0xbe2999d0	-0.16562581
22	0xbc074795	-0.008256813
23	0xbcbb97f8	-0.022899613
24	0x3e2161cb	0.15759961
25	0xbe3b01c6	-0.18262395
26	0xbde2863f	-0.11060762
27	0x3e19526d	0.14972849
28	0xbddd56f1	-0.108075984
29	0x3e38bc84	0.18040663
30	0xbe055376	-0.13020119
31	0x3bc91f0d	0.0061377347
32	0xbde89b0f	-0.113577
33	0xbd52aaa3	-0.051432263
34	0x3e1f34d3	0.15547495
35	0x3cdf333a	0.027246106
36	0xbd25fa04	-0.040521637
37	0x3b972968	0.0046130903
38	0xbe2b8cc7	-0.16752921
39	0xbdf40a9e	-0.119160876
40	0x3df83b88	0.1212073
41	0xbdfa7192	-0.12228693
42	0xbd80810c	-0.06274614
43	0xbe2a3e5c	-0.1662535
44	0xbd5ab3c0	-0.05339408
45	0x3e1844ed	0.14870043
46	0xbc3b746a	-0.0114413295
47	0xbe387466	-0.18013152
48	0x3e26fc11	0.16307093
49	0x3e33fc0c	0.17576617
50	0x3da63dac	0.08117232
51	0xbd448a9e	-0.04798376
52	0xbe331b89	-0.17490973
53	0xbe0bc0ed	-0.13647814
54	0x3d7d1693	0.061789107
55	0x3e36e56f	0.1786096
56	0xbe3b8d76	-0.18315682
57	0xbe31c1fc	-0.17359155
58	0x3c77c682	0.015123012
59	0xbc8ca4dd	-0.017168457
60	0x3dedd757	0.116133384
61	0xbc8be1dd	-0.017075473
62	0xb9e38077	-0.00043392528
63	0x3e4b61ad	0.19861479
64	0xbda6d481	-0.08146001
65	0x3ddb7990	0.107165456
66	0xbc11adc9	-0.008891531
67	0x3cf1dcbb	0.029524198
68	0x3e23943c	0.15974516
69	0x3beac7b2	0.007164919
70	0xbd1b1151	-0.03785831
71	0x3dc04e51	0.09389938
72	0x3e45c63d	0.19313903
73	0xbd3fef85	-0.046859283
74	0x3d350a43	0.04419924
75	0xbd425e75	-0.047453362
76	0xbcb25966	-0.021771144
77	0xbe53a408	-0.20668042
78	0x3e236a19	0.15958442
79	0x3d381b8c	0.044948146
80	0x3d79fc11	0.061031405
81	0x3e2fc806	0.17166147
82	0xbc1c9134	-0.0095561035
83	0xbd82155f	-0.063517325
84	0x3d82ccce	0.0638672
85	0x3cae0fe0	0.021247804
86	0x3d21ad85	0.03947212
87	0xbd65f6fa	-0.05614374
88	0x3da35b57	0.07976406
89	0x3c1ef0fb	0.009701009
90	0xbd5e98d4	-0.054344967
91	0x3d6ef731	0.05834121
92	0xbd8f6acd	-0.070027925
93	0x3e36ea33	0.17862777
94	0xbd8cfb98	-0.06883925
95	0x3d1cdc61	0.038296107
96	0xbe0b41ac	-0.1359927
97	0xbd899c97	-0.0671932
98	0x3dce95a7	0.10087138
99	0x3d8fabe4	0.070152074
100	0xbde08888	-0.10963541
101	0x3d414066	0.047180556
102	0x3c2da540	0.010598481
103	0x3d52d361	0.051471118
104	0xbe3bb937	-0.18332373
105	0x3dbba4d4	0.09162298
106	0xbdcf1c1e	-0.10112785
107	0xbd124bcc	-0.035716817
108	0xbe05e6b8	-0.13076293
109	0x3d71cde8	0.059034258
110	0xbdbf38bd	-0.09336994
111	0x3e081ac1	0.13291456
112	0xbe2a00be	-0.16601846
113	0x3e190501	0.14943315
114	0x3d8a04d0	0.06739199
115	0xbe2d156a	-0.169027
116	0x3d6435aa	0.05571524
117	0x3e0b0a1c	0.13578075
118	0xbd130c04	-0.03590013
119	0xbe26d7d4	-0.1629327
120	0x3d58f58f	0.052968558
121	0xbd6ad25c	-0.05732952
122	0x3e053e33	0.13012008
123	0x3dbd6ef2	0.09249677
124	0x3e1a8a71	0.15091874
125	0xbd5f3d03	-0.054501545
126	0xbdc4b443	-0.09604695
127	0x3db1ebeb	0.08687576
128	0x3da87cad	0.08226905
129	0xbdab9dbe	-0.08379696
130	0xbe1953af	-0.14973329
131	0x3da1f0d1	0.0790726
132	0x3decbc80	0.11559391
133	0xbbf40436	-0.007446791
134	0xbe04ef2b	-0.1298186
135	0x3d48b36a	0.048999228
136	0x3ce7f68f	0.02831581
137	0x3cef48f4	0.029209591
138	0xbe3f6e91	-0.18694521
139	0x3e0fbc13	0.14036588
140	0xbdcacb84	-0.09902099
141	0xbe361b31	-0.1778381
142	0xbe327421	-0.17427112
143	0x3df812d6	0.12112968
144	0xbe382b73	-0.17985325
145	0xbd22dc4a	-0.039760865
146	0xbe13cf6d	-0.14434595
147	0x3c9fc113	0.019501245
148	0x3da6be12	0.08141722
149	0xbcdd24c0	-0.026995063
150	0xbde6f6aa	-0.11277516
151	0x3da0d9d9	0.07854051
152	0x3e0abb4b	0.13548009
153	0x3cc17730	0.023616403
154	0x3e18bbaa	0.14915338
155	0xbe107a49	-0.14109148
156	0xbbc9f671	-0.0061634113
157	0x3d9a9d9b	0.07549592
158	0xbbca6aa2	-0.0061772624
159	0xbe101777	-0.14071451
160	0x3e03e2e5	0.12879522
161	0xbd98e831	-0.07466162
162	0xba9c7d79	-0.0011939249
163	0x3dc98352	0.098395005
164	0x3e1a4862	0.15066674
165	0xbdded8f9	-0.10881228
166	0x3dfde103	0.12396433
167	0xbdbd6e9f	-0.09249615
168	0x3e0ad377	0.1355723
169	0x3e159cbe	0.14610574
170	0x3e017079	0.12640561
171	0x3d3ae24e	0.045625977
172	0xbe065a97	-0.13120495
173	0x3d17e9d6	0.037088238
174	0xbe2c606b	-0.16833656
175	0xbe24134e	-0.16022989
176	0x3de21836	0.11039774
177	0xbc26bca0	-0.010176808
178	0x3cd96126	0.026535582
179	0xbe1d05da	-0.15334263
180	0xbc584f80	-0.013202548
181	0x3df2819f	0.118411295
182	0x3dbee43d	0.09320877
183	0xbe27eb6a	-0.16398397
184	0xbd555f88	-0.05209306
185	0xbe1f0694	-0.15529853
186	0xbe1f2429	-0.15541138
187	0x3e2622d9	0.16224231
188	0xbdf584e7	-0.1198824
189	0x3baa87ea	0.0052041905
190	0xbe17d8f0	-0.14828849
191	0xbe24deab	-0.16100566
192	0xbb3ab8d7	-0.002849152
193	0xbe203d80	-0.1564846
194	0xbda73211	-0.08163846
195	0x3dd70261	0.104985006
196	0x3e21a4cf	0.15785526
197	0xbd517d72	-0.051145025
198	0x3d88f691	0.06687654
199	0xbe1113dc	-0.14167732
200	0x3e00ddff	0.12584685
201	0xbe30b91c	-0.17258114
202	0xbd8d7eb7	-0.069089346
203	0x3d9ab7f6	0.07554619
204	0xbd88d6cb	-0.066815935
205	0xbc381d15	-0.011237402
206	0x3ded652e	0.11591564
207	0xbcfca988	-0.030842558
208	0x3e238775	0.15969642
209	0xbc80ce3b	-0.015723338
210	0x3df69a09	0.120410986
211	0xbc9253ca	-0.01786222
212	0xbd2291b2	-0.039689727
213	0xbdc05db9	-0.09392876
214	0xbe197887	-0.14987384
215	0x3e033a31	0.12815167
216	0x3cc26c85	0.023733387
217	0xbdd9aca7	-0.10628634
218	0x3ba3bdb0	0.0049969777
219	0x3d3cd695	0.04610308
220	0x3cbd1d5d	0.02308529
221	0xbd22b244	-0.03972079
222	0x3dc8edb7	0.098109655
223	0xbb31c447	-0.0027125047
224	0x3e01a18d	0.12659283
225	0x3dcd0fd1	0.10012782
226	0x3dd9e2ba	0.10638948
227	0xbe3982c6	-0.18116292
228	0xbdad8da1	-0.08474279
229	0x3e304c37	0.17216574
230	0xbd1f2bf1	-0.038860265
231	0xbe1eed85	-0.15520294
232	0x3da2c0e4	0.07946947
233	0x3d113dc2	0.035459287
234	0xbe2f50c7	-0.17120658
235	0xbddad35f	-0.10684847
236	0x3d7c06e6	0.061530016
237	0x3bc49154	0.00599877
238	0x3e0e1801	0.13876344
239	0x3d8b772c	0.068098396
240	0x3d23dac0	0.040003538
241	0xbce39e7c	-0.027785532
242	0xbe1a0fbe	-0.15045068
243	0x3e25d9ed	0.16196413
244	0x3c6e97cd	0.014562559
245	0xbcd7a114	-0.026321925
246	0x3dd2e8c4	0.10298303
247	0xbbc3d639	-0.005976465
248	0xbded18d8	-0.11577004
249	0xbc86cc05	-0.016454706
250	0xbe02b56a	-0.12764516
251	0x3d42bbed	0.0475425
252	0xbd79a4f6	-0.060948335
253	0xbd9a7f63	-0.07543828
254	0x3ddea7ea	0.10871871
255	0x3cf52615	0.029925385

arith.constant2 f4 [32]
0	0xbf228393	-0.63482016
1	0xbf3dfda8	-0.74215174
2	0xbf2c2535	-0.67244273
3	0xbf390f71	-0.72289187
4	0xbf37e2d7	-0.71830505
5	0xbf3248cd	-0.69642335
6	0xbf20367c	-0.62583137
7	0xbf23af21	-0.639391
8	0xbf2668fe	-0.65003955
9	0xbf282890	-0.65686893
10	0xbf2cfb1b	-0.67570657
11	0xbf1a2d12	-0.6022502
12	0xbf379d02	-0.7172395
13	0xbf26a587	-0.65096325
14	0xbf2c4ab8	-0.6730151
15	0xbf15b4c3	-0.58478945
16	0xbf27da75	-0.65567714
17	0xbf35a740	-0.7095833
18	0xbf3352e9	-0.70048386
19	0xbf2f6458	-0.6851249
20	0xbf2b12ef	-0.66825765
21	0xbf236c80	-0.6383743
22	0xbf32aab8	-0.69791746
23	0xbf23aea7	-0.63938373
24	0xbf24bce7	-0.6435074
25	0xbf28f891	-0.6600428
26	0xbf2b99f5	-0.67031795
27	0xbf2e7fca	-0.6816374
28	0xbf3793df	-0.7171001
29	0xbf1d314b	-0.6140334
30	0xbf298810	-0.6622324
31	0xbf2425f0	-0.6412039

arith.constant3 f4 [32]
0	0x3fc1496f	1.5100535
1	0x3fdd26ee	1.7277505
2	0x3fea896a	1.8323185
3	0x3ff11528	1.8834581
4	0x3fe63462	1.7984736
5	0x3fe13bda	1.759639
6	0x3fee8956	1.8635662
7	0x3fe43470	1.7828503
8	0x3fe5d591	1.79558
9	0x3fdb4c9c	1.7132754
10	0x3ff83ed3	1.9394172
11	0x3fd68deb	1.676206
12	0x3ff57f0a	1.9179394
13	0x3fdd3f74	1.7284989
14	0x3fd0c049	1.6308681
15	0x3fa88a08	1.3167124
16	0x3febc336	1.8418949
17	0x3fe1d5fb	1.7643427
18	0x4003c351	2.0587962
19	0x3ff887f2	1.9416487
20	0x3fef7009	1.8706065
21	0x3feceb2a	1.8509266
22	0x3fefc04e	1.8730562
23	0x3fe32801	1.7746583
24	0x3fe67ca3	1.8006786
25	0x3fbe22c7	1.4854363
26	0x3ff106cf	1.8830203
27	0x3fac9168	1.3481874
28	0x3fe80db7	1.8129185
29	0x3fce0838	1.6096258
30	0x3fdd4376	1.7286212
31	0x3fce6b3d	1.6126477

arith.constant4 f4 [32]
0	0xbf3a830b	-0.72856206
1	0xbf3c946c	-0.73663974
2	0xbf585876	-0.8450998
3	0xbf0b8564	-0.5450041
4	0xbf11e487	-0.5698933
5	0xbf05108d	-0.5197838
6	0xbf3b368d	-0.7313011
7	0xbf665b42	-0.89983
8	0xbf44663c	-0.767185
9	0xbf22ec63	-0.6364195
10	0xbf13efc3	-0.5778772
11	0xbf38f5a1	-0.722498
12	0xbf473922	-0.7782155
13	0xbf5f3354	-0.87187696
14	0xbf2028f7	-0.6256251
15	0xbf2db15f	-0.6784877
16	0xbf0f2643	-0.5591776
17	0xbf346e33	-0.7048065
18	0xbec8f35e	-0.39248174
19	0xbf07de76	-0.53073823
20	0xbf35f315	-0.7107404
21	0xbf576169	-0.8413301
22	0xbf518124	-0.8183768
23	0xbf18d099	-0.59693295
24	0xbf2f7c7f	-0.6854934
25	0xbf3ef504	-0.74592614
26	0xbf00e5e1	-0.5035077
27	0xbf349087	-0.7053303
28	0xbf11f4c4	-0.5701411
29	0xbf49b154	-0.78786206
30	0xbf19bb27	-0.60051197
31	0xbf3617fc	-0.7113035

arith.constant5 f4 [32]
0	0x3fd103ca	1.6329281
1	0x3fecf98b	1.8513654
2	0x3f8f16bb	1.1178812
3	0x400797b7	2.118635
4	0x3fc84b7f	1.564804
5	0x40075328	2.1144505
6	0x3fd814fb	1.6881403
7	0x3fae1a7b	1.3601831
8	0x3fa459e2	1.283993
9	0x3fcfbe87	1.6230019
10	0x3fc31486	1.5240638
11	0x3fce0b91	1.609728
12	0x3fca7f78	1.582015
13	0x3fabdd2e	1.3426874
14	0x3ff52d25	1.9154402
15	0x3fc7dbe3	1.5613979
16	0x4022f0a4	2.5459375
17	0x3f91d51c	1.1393161
18	0x405a298f	3.4087865
19	0x3ff8c1e2	1.9434168
20	0x3fc0bc3f	1.5057448
21	0x3f9ab728	1.2087145
22	0x3f9a2330	1.2041988
23	0x3fe2da19	1.7722808
24	0x3fc1741b	1.5113558
25	0x3f7f4e3e	0.99728763
26	0x401c6b40	2.444046
27	0x3fcc94d1	1.5982915
28	0x3ff3a02a	1.9033253
29	0x3fb8776e	1.4411447
30	0x3ff80d5b	1.9379076
31	0x3fbae240	1.4600296

arith.constant6 f4 [16]
0	0xbbe7781f	-0.00706388
1	0xbc0ff148	-0.008785553
2	0xbff7ec19	-1.9368926
3	0xbea82c8d	-0.3284649
4	0xbf2e12cd	-0.6799744
5	0x3c1e3083	0.009655121
6	0xbec16fa0	-0.37780476
7	0xbd764837	-0.060127463
8	0xbefdbd0a	-0.49558288
9	0xbfc14697	-1.5099667
10	0xbfed7d01	-1.8553773
11	0x3b0eb563	0.0021775595
12	0xbd7477f9	-0.059684727
13	0xc000aa21	-2.0103838
14	0xbf4eed37	-0.8083071
15	0xc01aa072	-2.4160428

arith.constant7 f4 [16]
0	0x41faa4df	31.330503
1	0x41fd52bd	31.6654
2	0x40fd6877	7.919002
3	0x41bedf56	23.85905
4	0x41b93bac	23.154137
5	0x41fa41f3	31.282202
6	0x41a29634	20.323341
7	0x41ec4c7c	29.537346
8	0x41a3fd1e	20.498592
9	0x419662e0	18.798279
10	0x40e0cdcb	7.025121
11	0x41fcb11b	31.586477
12	0x41e6b2c9	28.837297
13	0x412b1869	10.6934595
14	0x41354a72	11.330675
15	0x40977b96	4.733836

arith.constant8 f4 [16]
0	0xbf1d424a	-0.61429274
1	0xbf5038b1	-0.81336504
2	0xbf2c142b	-0.67218274
3	0xbf2bbe6c	-0.67087436
4	0xbf395628	-0.7239709
5	0xbf3a4a0c	-0.72769237
6	0xbf24217f	-0.6411361
7	0xbf2d31c8	-0.67654085
8	0xbf1c684b	-0.6109664
9	0xbf42f5bb	-0.76156205
10	0xbf279520	-0.6546192
11	0xbf2a8199	-0.66604
12	0xbf1a77dd	-0.60339147
13	0xbf1f93a2	-0.62334645
14	0xbf21442a	-0.62994635
15	0xbf4353a4	-0.762995

arith.constant9 f4 [16]
0	0x4004d45c	2.0754614
1	0x4065f037	3.5927866
2	0x405ee913	3.4829757
3	0x3ff6fd95	1.9296137
4	0x3fb069b0	1.3782253
5	0x40b274c7	5.576755
6	0x407643dd	3.847892
7	0x3ff16732	1.8859618
8	0x409a4c73	4.821832
9	0x3fd6a85b	1.6770128
10	0x407c58d8	3.9429226
11	0x4030e728	2.7641087
12	0x40724172	3.7852445
13	0x40885a29	4.261006
14	0x40a13e94	5.038889
15	0x40c13fab	6.039022

arith.constant11 f4 [64]
0	0xba8c17cf	-0.0010688248
1	0x3c147690	0.009061471
2	0x3ba3e374	0.0050014798
3	0xbba2f59e	-0.0049731275
4	0x3b56558a	0.0032704794
5	0xbb86d233	-0.004114413
6	0x3aea7aed	0.0017889418
7	0x3b4525f3	0.0030082434
8	0x3ba6a7a1	0.005085901
9	0x379ce49a	1.87031e-05
10	0xb9b036c8	-0.0003361015
11	0x3a49b9a1	0.00076952024
12	0xbbb4d9a5	-0.0055191093
13	0xb655870b	-3.1818079e-06
14	0xbb963ca6	-0.0045848666
15	0xb90f53f4	-0.00013668818
16	0x3b72132f	0.0036937704
17	0x387e8140	6.0678693e-05
18	0x3b6bbc6b	0.003597046
19	0x3af5b833	0.0018746912
20	0x3b537659	0.0032266586
21	0xbad5711a	-0.0016284317
22	0x3b9faf80	0.004873216
23	0x3bf86a82	0.007581056
24	0x3af95a9d	0.0019024197
25	0x3b90f767	0.004424024
26	0xbad39367	-0.0016141952
27	0xba6e0983	-0.0009080397
28	0xbb6e03cd	-0.0036318183
29	0x3b1add37	0.002363039
30	0x3bf524ec	0.007481208
31	0xbb414b30	-0.0029494278
32	0x3a2e0cb4	0.0006639466
33	0xbbd0fc7a	-0.006377754
34	0x3c3d4072	0.0115510095
35	0x3b6a4920	0.0035749152
36	0xbbd8f4aa	-0.006620963
37	0xbad025d3	-0.0015880413
38	0xbb6fb5ca	-0.003657686
39	0x3b6bf261	0.0036002623
40	0xba7e5ac9	-0.0009702859
41	0xbb8b32c1	-0.0042479937
42	0x3b49aecc	0.0030774353
43	0x37ea9697	2.7965098e-05
44	0xbb9ed071	-0.0048466255
45	0x38cb8193	9.7039294e-05
46	0xba5dbbb8	-0.0008458453
47	0xbbb3b276	-0.0054839207
48	0x3b2d19b0	0.0026413016
49	0xba8c4e46	-0.001070448
50	0x3acd117c	0.001564547
51	0xbbad4d75	-0.0052887746
52	0x3b0e3f19	0.002170509
53	0x39fe8791	0.0004854766
54	0xbb09c184	-0.0021019885
55	0x3b123978	0.0022312086
56	0x3a6ca961	0.0009027925
57	0x3b00a8f8	0.0019631963
58	0x3bc5f76e	0.006041459
59	0x3a878077	0.0010337968
60	0x3b72d623	0.0037053905
61	0x3bce171d	0.0062893764
62	0x3ba3bf2c	0.0049971547
63	0x3a05d04c	0.0005104586

arith.constant12 f4 [32]
0	0x3b6bba48	0.0035969187
1	0x3ae919ee	0.0017784217
2	0xbb2c4aab	-0.0026289623
3	0xbbc92a8a	-0.0061391043
4	0xb91de12e	-0.00015056573
5	0xbb1d9cb3	-0.00240497
6	0x3ba33d58	0.004981678
7	0xb99dd78c	-0.00030105968
8	0x3baeff89	0.0053405208
9	0x3b33a773	0.002741304
10	0xbb8c52ad	-0.0042823167
11	0x3b7a57ff	0.0038199422
12	0x3b8c9ff3	0.0042915284
13	0x3ba6c9f7	0.005089994
14	0x3b8d8252	0.004318514
15	0xbbdc679c	-0.0067262184
16	0xbab22504	-0.0013591354
17	0x3bd10eb1	0.006379925
18	0x3ab86e35	0.001407093
19	0x3b7d36c3	0.0038637377
20	0xba2c8e83	-0.0006582515
21	0xba38aeda	-0.0007045098
22	0x3a8b7041	0.0010638313
23	0x39cae363	0.0003869786
24	0x3933e635	0.00017156529
25	0x3aff744d	0.0019489616
26	0x3b5be9e5	0.003355616
27	0x3bb330f1	0.0054684808
28	0xbabf8446	-0.0014611564
29	0xba90830d	-0.0011025384
30	0xbc086d45	-0.008326833
31	0x3b58eb99	0.0033099412

arith.constant13 f4 [32]
0	0x3c3c81b4	0.011505533
1	0x3b2e0ca5	0.002655783
2	0xbb7c066d	-0.0038455979
3	0xbb601642	-0.0034192954
4	0xb7f09541	-2.8679731e-05
5	0x3b1ea4ce	0.0024207118
6	0xba1f1e5b	-0.0006069892
7	0x3b8e0458	0.004334014
8	0x3b8c5d26	0.004283565
9	0x3b4e1d4a	0.0031450563
10	0x3b93854c	0.004501974
11	0xbb43f687	-0.002990158
12	0x3a98634a	0.001162627
13	0x3c1e03f3	0.009644496
14	0x3c3fd4c7	0.011708445
15	0xbb7ab43b	-0.0038254398
16	0x3c66819c	0.014068987
17	0xbb45f370	-0.0030204915
18	0xb912f735	-0.00014015737
19	0xbaef85b1	-0.0018274096
20	0x3a29372a	0.00064550585
21	0xbae6053c	-0.0017549167
22	0xbb3abb93	-0.002849315
23	0xb78b18d7	-1.6581658e-05
24	0x3b4cda15	0.0031257917
25	0xbb651d83	-0.0034960217
26	0xbab3ea1d	-0.0013726387
27	0xba7e1b2e	-0.0009693381
28	0x3ad6ace2	0.0016378427
29	0x3ac3c395	0.0014935607
30	0xb996949a	-0.00028720946
31	0xb912a006	-0.00013983258

arith.constant14 f4 [16]
0	0x3bb8808e	0.0056305593
1	0xb997701c	-0.00028884492
2	0x3bd3371f	0.00644578
3	0x3ba58633	0.005051398
4	0xba5eebf1	-0.0008503786
5	0xbb1d80fb	-0.0024033177
6	0x3b82e7b3	0.003994906
7	0xbc1ce5bb	-0.009576256
8	0xbb4f8c4a	-0.0031669312
9	0xbbb2628e	-0.0054438775
10	0x3bba9684	0.0056942124
11	0x3a86172c	0.0010230294
12	0x3aafa5c1	0.0013400839
13	0x3ba5ab09	0.0050557894
14	0x3c1df388	0.009640582
15	0xba4abbda	-0.00077336805

arith.constant15 f4 [2, 64]
0	0xbde6c3dc	-0.11267826
1	0x3e044440	0.1291666
2	0x3ddee029	0.10882599
3	0xbe0af45e	-0.13569781
4	0xbdeacb6e	-0.114645824
5	0xbe6f7e7e	-0.23388097
6	0x3ba01dad	0.00488635
7	0xbd2252bf	-0.039629694
8	0x3dd6daf8	0.10490984
9	0xbcd42ae3	-0.025899356
10	0x3e1ac06c	0.15112466
11	0x3c0ffc4c	0.00878818
12	0x40697947	3.6480272
13	0xbd696341	-0.05697942
14	0x3f7f84d5	0.9981206
15	0x3e40e599	0.18837585
16	0xbdb07c5c	-0.0861747
17	0xbe0f7b80	-0.14011955
18	0x3d6f2151	0.058381382
19	0x3adf7f24	0.0017051441
20	0xbd39cba3	-0.04536022
21	0x3dbf9573	0.09354677
22	0xbda1f6f2	-0.07908429
23	0x3daf0970	0.08546722
24	0xbdb04461	-0.08606792
25	0x3da3e9f6	0.08003609
26	0xbd8b613e	-0.06805657
27	0xbd367a17	-0.044550028
28	0x40c1c51f	6.0553126
29	0xbd9f2199	-0.0777008
30	0x3dd2b8a8	0.10289127
31	0x40843b66	4.132251
32	0x3e0ad52e	0.13557884
33	0xbe2f44ba	-0.17116061
34	0x3dd83d27	0.10558539
35	0x3ceed8ae	0.029156055
36	0xc06d3944	-3.7066202
37	0xbe9af716	-0.30266637
38	0x3ea24de4	0.3170005
39	0xbd9e039b	-0.077155314
40	0xbda26a3b	-0.07930418
41	0xc03db997	-2.9644525
42	0x3ddf7192	0.10910334
43	0xbb98eb05	-0.0046666884
44	0x3efc2d0c	0.49253118
45	0xbd667739	-0.056266043
46	0xbd26c330	-0.04071349
47	0xc04a7200	-3.163208
48	0xbdb443a4	-0.08801964
49	0x3ef45539	0.4772127
50	0xbcfdbb3f	-0.030973075
51	0xbc64b2e2	-0.013958665
52	0xbe197d17	-0.14989124
53	0x3e0ac909	0.13553251
54	0x3d680a6b	0.05665056
55	0xbcd629be	-0.026142951
56	0x3da1a2a8	0.07892352
57	0xbda7e587	-0.08198076
58	0x3e09cc6c	0.13456887
59	0xbdaf683e	-0.085648045
60	0xbdcd00d5	-0.10009924
61	0x3ab4bb5d	0.0013788749
62	0x3d316c9d	0.043316472
63	0xbdf081f5	-0.11743537
64	0xbe277126	-0.16351756
65	0xbd8f6ff5	-0.07003776
66	0xbdd7e739	-0.10542149
67	0xbf138c80	-0.5763626
68	0xbde6f395	-0.11276928
69	0xbf7db89b	-0.9910981
70	0x3dd7d3e2	0.1053846
71	0x3d133a98	0.03594455
72	0x3d862ce6	0.065515324
73	0x3d91b9ee	0.071155414
74	0xbda3381e	-0.07969688
75	0x3dad29b6	0.08455221
76	0x4053df98	3.310522
77	0x3da112f2	0.07864942
78	0xbed441ac	-0.41456354
79	0xbe99528d	-0.29945794
80	0x3c3b8486	0.01144517
81	0xbdd797f0	-0.10527027
82	0xbd78d2e7	-0.060748007
83	0x3d9c1704	0.076215774
84	0xbdc2f031	-0.09518469
85	0xbf28c7ce	-0.6592988
86	0xbd347dd6	-0.04406532
87	0xbd9b0a73	-0.075703524
88	0xbc0b8e2d	-0.008517784
89	0xbc941c68	-0.018079951
90	0x3b93a16f	0.0045053284
91	0x3d29790e	0.041375212
92	0x3ea393d9	0.31948736
93	0xbc7738dc	-0.01508924
94	0xbd31aa73	-0.043375444
95	0x4055ccda	3.3406281
96	0x3cfa5de1	0.030562343
97	0x3e3fe726	0.1874052
98	0xbd339517	-0.043843355
99	0xbe022f22	-0.12713292
100	0xc0bad69b	-5.838697
101	0xbea6b3e3	-0.32559118
102	0xbecbcc40	-0.39804268
103	0x3c08af9c	0.00834265
104	0x3cf6da3e	0.030133363
105	0xc0acfd28	-5.405903
106	0x3df73104	0.12069896
107	0x3d0f5600	0.034994125
108	0x3e700a15	0.23441346
109	0x3db1a9e2	0.08674981
110	0x3bb2da5d	0.00545816
111	0xbfc91536	-1.5709598
112	0x3dc77cc0	0.09740591
113	0x3e415152	0.18878677
114	0x3cd8b8ed	0.026455367
115	0x3c904e5d	0.017615492
116	0x3cbd8e17	0.023139043
117	0x3e155e0f	0.14586662
118	0x3d6e3212	0.05815322
119	0x3db97c8a	0.09056957
120	0x3ddaf8e3	0.106920026
121	0xbe8e1d34	-0.27756655
122	0xbdb21b18	-0.08696574
123	0x3e21ff7a	0.15820113
124	0x3d7e88d6	0.062142216
125	0xbdd037cd	-0.10166893
126	0xbd81499d	-0.06312869
127	0x3da0f4f6	0.078592226

arith.constant16 f4 [2]
0	0x403dd685	2.9662182
1	0xc03fe712	-2.9984784

tfl.pseudo_qconst i1 [32, 3, 3, 32]
0	0xe6	-26
1	0xe3	-29
2	0xb8	-72
3	0x1a	26
4	0xa1	-95
5	0xb6	-74
6	0x73	115
7	0xb5	-75
8	0x1c	28
9	0x61	97
10	0xc2	-62
11	0xfc	-4
12	0x14	20
13	0xa3	-93
14	0x64	100
15	0xca	-54
16	0x8d	-115
17	0x1d	29
18	0x4e	78
19	0xe6	-26
20	0xde	-34
21	0x56	86
22	0x3f	63
23	0xc5	-59
24	0xe1	-31
25	0x17	23
26	0x5d	93
27	0x96	-106
28	0xcd	-51
29	0x79	121
30	0xea	-22
31	0x3a	58
32	0x3b	59
33	0x4f	79
34	0x62	98
35	0x0c	12
36	0xb5	-75
37	0xc4	-60
38	0x4e	78
39	0xc4	-60
40	0xf8	-8
41	0x85	-123
42	0x11	17
43	0xb7	-73
44	0xe9	-23
45	0x1b	27
46	0x97	-105
47	0x9a	-102
48	0xd0	-48
49	0x2d	45
50	0x66	102
51	0x10	16
52	0x14	20
53	0xc6	-58
54	0x74	116
55	0x4c	76
56	0x77	119
57	0xd8	-40
58	0x53	83
59	0x30	48
60	0xb2	-78
61	0x7e	126
62	0x17	23
63	0x52	82
64	0xe0	-32
65	0x0f	15
66	0x94	-108
67	0x5a	90
68	0x23	35
69	0xb1	-79
70	0xba	-70
71	0x5d	93
72	0xa0	-96
73	0x4d	77
74	0x3b	59
75	0x20	32
76	0x07	7
77	0xd2	-46
78	0xbb	-69
79	0xfd	-3
80	0xa4	-92
81	0x5b	91
82	0x8d	-115
83	0x3c	60
84	0x77	119
85	0xb9	-71
86	0xc2	-62
87	0x40	64
88	0x5a	90
89	0x17	23
90	0xcf	-49
91	0xb1	-79
92	0x3c	60
93	0x7d	125
94	0x24	36
95	0xf3	-13
96	0x9c	-100
97	0xef	-17
98	0xc5	-59
99	0x0b	11
100	0xee	-18
101	0xd4	-44
102	0x73	115
103	0x3d	61
104	0x99	-103
105	0xe2	-30
106	0x9c	-100
107	0x93	-109
108	0x03	3
109	0x46	70
110	0x11	17
111	0x3d	61
112	0x7b	123
113	0x36	54
114	0xb5	-75
115	0x61	97
116	0x9c	-100
117	0x5e	94
118	0xf9	-7
119	0x09	9
120	0x53	83
121	0x05	5
122	0x69	105
123	0x64	100
124	0xd3	-45
125	0x6f	111
126	0x18	24
127	0x4d	77
128	0xc5	-59
129	0xdc	-36
130	0x5b	91
131	0x5f	95
132	0xae	-82
133	0x47	71
134	0x48	72
135	0x68	104
136	0x99	-103
137	0x3e	62
138	0x76	118
139	0x56	86
140	0x08	8
141	0x13	19
142	0xc0	-64
143	0xe5	-27
144	0x97	-105
145	0xd9	-39
146	0x21	33
147	0x07	7
148	0xec	-20
149	0xdb	-37
150	0xf4	-12
151	0x25	37
152	0xb7	-73
153	0x42	66
154	0x1a	26
155	0x9f	-97
156	0x34	52
157	0xd0	-48
158	0x07	7
159	0x7b	123
160	0xf4	-12
161	0x56	86
162	0x4b	75
163	0x23	35
164	0x93	-109
165	0xee	-18
166	0x2d	45
167	0x54	84
168	0xf0	-16
169	0x27	39
170	0xb0	-80
171	0x9c	-100
172	0x4a	74
173	0x67	103
174	0xe5	-27
175	0xf4	-12
176	0xba	-70
177	0x4a	74
178	0x09	9
179	0x15	21
180	0xde	-34
181	0x44	68
182	0x43	67
183	0x4e	78
184	0x02	2
185	0xaa	-86
186	0x3d	61
187	0x81	-127
188	0xc6	-58
189	0xd2	-46
190	0x25	37
191	0x0a	10
192	0x99	-103
193	0x92	-110
194	0xa7	-89
195	0x68	104
196	0xc2	-62
197	0x3d	61
198	0x7d	125
199	0x2b	43
200	0x6c	108
201	0x79	121
202	0xb8	-72
203	0xb0	-80
204	0x20	32
205	0x28	40
206	0x6b	107
207	0x20	32
208	0x44	68
209	0xa7	-89
210	0x50	80
211	0x57	87
212	0xa9	-87
213	0xae	-82
214	0x52	82
215	0x5f	95
216	0x6a	106
217	0x3f	63
218	0xc8	-56
219	0x6a	106
220	0xc3	-61
221	0x17	23
222	0x89	-119
223	0x44	68
224	0x66	102
225	0x38	56
226	0x0f	15
227	0xab	-85
228	0x2d	45
229	0x90	-112
230	0x01	1
231	0x65	101
232	0x9b	-101
233	0x6d	109
234	0xe3	-29
235	0xf5	-11
236	0xed	-19
237	0xb4	-76
238	0xa2	-94
239	0xca	-54
240	0x74	116
241	0x8f	-113
242	0x5b	91
243	0x8f	-113
244	0xde	-34
245	0x53	83
246	0x0b	11
247	0x36	54
248	0x89	-119
249	0x5e	94
250	0xb3	-77
251	0xe5	-27
252	0x43	67
253	0xfc	-4
254	0x91	-111
255	0x5c	92

tfl.pseudo_qconst1 i1 [32, 3, 3, 16]
0	0x74	116
1	0x0c	12
2	0xeb	-21
3	0x66	102
4	0xd9	-39
5	0xe8	-24
6	0x9a	-102
7	0x1c	28
8	0x0b	11
9	0xe9	-23
10	0x38	56
11	0xce	-50
12	0x28	40
13	0x4b	75
14	0x5c	92
15	0xf3	-13
16	0x25	37
17	0x53	83
18	0x86	-122
19	0x18	24
20	0xb4	-76
21	0xd2	-46
22	0x38	56
23	0x3f	63
24	0x77	119
25	0x8f	-113
26	0x12	18
27	0x4c	76
28	0x17	23
29	0x79	121
30	0x2d	45
31	0x34	52
32	0x0c	12
33	0x3e	62
34	0x02	2
35	0xe3	-29
36	0xad	-83
37	0x83	-125
38	0xd8	-40
39	0xd1	-47
40	0xfb	-5
41	0xff	-1
42	0xb4	-76
43	0xd9	-39
44	0xcc	-52
45	0x7f	127
46	0x21	33
47	0xca	-54
48	0x3b	59
49	0x57	87
50	0x83	-125
51	0xa9	-87
52	0x93	-109
53	0x34	52
54	0x64	100
55	0xf7	-9
56	0x03	3
57	0x7d	125
58	0x98	-104
59	0x4d	77
60	0xaf	-81
61	0x51	81
62	0x15	21
63	0x99	-103
64	0xf2	-14
65	0x5f	95
66	0x53	83
67	0x13	19
68	0xbf	-65
69	0x08	8
70	0x11	17
71	0x8c	-116
72	0x10	16
73	0x95	-107
74	0x3b	59
75	0x14	20
76	0x99	-103
77	0x0e	14
78	0x1c	28
79	0x89	-119
80	0xe4	-28
81	0x05	5
82	0xf0	-16
83	0x08	8
84	0x43	67
85	0x31	49
86	0x7a	122
87	0x3f	63
88	0xe2	-30
89	0x03	3
90	0xd0	-48
91	0xc9	-55
92	0x2d	45
93	0xee	-18
94	0x0e	14
95	0xe5	-27
96	0x98	-104
97	0x0b	11
98	0x8d	-115
99	0xe4	-28
100	0x40	64
101	0xbe	-66
102	0xfd	-3
103	0x47	71
104	0xaf	-81
105	0xb0	-80
106	0x0d	13
107	0xb0	-80
108	0xc1	-63
109	0xbb	-69
110	0x03	3
111	0xdc	-36
112	0x78	120
113	0x35	53
114	0x74	116
115	0x4b	75
116	0x6a	106
117	0x71	113
118	0x62	98
119	0x0d	13
120	0xed	-19
121	0xfe	-2
122	0xc4	-60
123	0xec	-20
124	0xca	-54
125	0x54	84
126	0xfc	-4
127	0x83	-125
128	0xe5	-27
129	0xc3	-61
130	0x6a	106
131	0x89	-119
132	0xc1	-63
133	0x28	40
134	0x5d	93
135	0x81	-127
136	0xfe	-2
137	0x1c	28
138	0x05	5
139	0x38	56
140	0x4f	79
141	0x73	115
142	0x94	-108
143	0xa9	-87
144	0xb8	-72
145	0x96	-106
146	0xa5	-91
147	0x36	54
148	0x47	71
149	0x33	51
150	0xe3	-29
151	0xb2	-78
152	0x49	73
153	0x9f	-97
154	0x31	49
155	0xfd	-3
156	0x05	5
157	0xfb	-5
158	0xcd	-51
159	0x40	64
160	0xa7	-89
161	0x2e	46
162	0x75	117
163	0xf4	-12
164	0x0e	14
165	0xa6	-90
166	0xea	-22
167	0xbf	-65
168	0x81	-127
169	0xa0	-96
170	0xe1	-31
171	0x51	81
172	0x17	23
173	0x79	121
174	0x2f	47
175	0x0c	12
176	0x27	39
177	0x3c	60
178	0x13	19
179	0x0e	14
180	0xd4	-44
181	0x51	81
182	0x75	117
183	0x7a	122
184	0xf4	-12
185	0x26	38
186	0xcc	-52
187	0xb9	-71
188	0x0a	10
189	0xf4	-12
190	0xa4	-92
191	0xa1	-95
192	0x1d	29
193	0x65	101
194	0x9b	-101
195	0x94	-108
196	0x6c	108
197	0xa3	-93
198	0x17	23
199	0x21	33
200	0x1a	26
201	0xf7	-9
202	0x2c	44
203	0xcb	-53
204	0xfa	-6
205	0x0a	10
206	0x22	34
207	0xa9	-87
208	0x1e	30
209	0x62	98
210	0x6a	106
211	0x67	103
212	0x35	53
213	0x43	67
214	0x5a	90
215	0x11	17
216	0x3c	60
217	0xb4	-76
218	0xdb	-37
219	0xfc	-4
220	0x23	35
221	0x9b	-101
222	0x10	16
223	0x67	103
224	0xc0	-64
225	0xab	-85
226	0xaf	-81
227	0x9d	-99
228	0x02	2
229	0x3d	61
230	0xf0	-16
231	0xad	-83
232	0x3c	60
233	0xad	-83
234	0xdb	-37
235	0xbc	-68
236	0xcd	-51
237	0x99	-103
238	0xf9	-7
239	0x6d	109
240	0xa9	-87
241	0xc1	-63
242	0xfc	-4
243	0x1b	27
244	0x08	8
245	0xfd	-3
246	0x26	38
247	0x45	69
248	0xec	-20
249	0xa9	-87
250	0x08	8
251	0xb7	-73
252	0xab	-85
253	0xab	-85
254	0xb7	-73
255	0xd0	-48

tfl.pseudo_qconst2 i1 [16, 3, 3, 16]
0	0xca	-54
1	0x12	18
2	0x1d	29
3	0xc8	-56
4	0xef	-17
5	0xf0	-16
6	0x78	120
7	0x05	5
8	0x07	7
9	0xdb	-37
10	0xf2	-14
11	0xe6	-26
12	0xab	-85
13	0x65	101
14	0x27	39
15	0x3f	63
16	0xf7	-9
17	0x01	1
18	0x90	-112
19	0xa6	-90
20	0x0b	11
21	0x5b	91
22	0xe8	-24
23	0xdd	-35
24	0x4b	75
25	0x60	96
26	0xa0	-96
27	0x12	18
28	0xf2	-14
29	0xae	-82
30	0x97	-105
31	0x42	66
32	0x35	53
33	0x2a	42
34	0xaa	-86
35	0xcb	-53
36	0xc5	-59
37	0x59	89
38	0x3b	59
39	0xf9	-7
40	0x40	64
41	0x2b	43
42	0x6e	110
43	0xa6	-90
44	0x1f	31
45	0xb3	-77
46	0x92	-110
47	0x74	116
48	0xd2	-46
49	0x90	-112
50	0x25	37
51	0x1c	28
52	0x74	116
53	0xae	-82
54	0x85	-123
55	0xde	-34
56	0x7f	127
57	0x44	68
58	0xad	-83
59	0x14	20
60	0xbe	-66
61	0x3b	59
62	0x79	121
63	0xd3	-45
64	0xb2	-78
65	0x3c	60
66	0x2e	46
67	0xc0	-64
68	0x16	22
69	0x00	0
70	0x54	84
71	0x4a	74
72	0x8f	-113
73	0xc7	-57
74	0xf8	-8
75	0xc0	-64
76	0x9f	-97
77	0x4e	78
78	0x16	22
79	0x09	9
80	0x2d	45
81	0x13	19
82	0xa9	-87
83	0x04	4
84	0x8a	-118
85	0x2e	46
86	0xcf	-49
87	0x27	39
88	0x72	114
89	0x3d	61
90	0x1f	31
91	0x07	7
92	0xe3	-29
93	0x48	72
94	0xce	-50
95	0x0e	14
96	0xc4	-60
97	0x4b	75
98	0x4a	74
99	0x6e	110
100	0x0c	12
101	0x69	105
102	0x19	25
103	0x2f	47
104	0x0c	12
105	0xb3	-77
106	0xfc	-4
107	0x65	101
108	0x0a	10
109	0x08	8
110	0x07	7
111	0x9a	-102
112	0xcb	-53
113	0xdf	-33
114	0x51	81
115	0x3b	59
116	0x50	80
117	0x0f	15
118	0x92	-110
119	0xc2	-62
120	0xf4	-12
121	0xc4	-60
122	0xeb	-21
123	0xbe	-66
124	0x6b	107
125	0x4c	76
126	0x67	103
127	0xfc	-4
128	0xf0	-16
129	0x32	50
130	0x64	100
131	0xe2	-30
132	0x56	86
133	0x0e	14
134	0xf1	-15
135	0x3f	63
136	0x0f	15
137	0x1c	28
138	0x6a	106
139	0x3f	63
140	0x1b	27
141	0x9e	-98
142	0x0c	12
143	0x69	105
144	0x6e	110
145	0xca	-54
146	0x94	-108
147	0x1b	27
148	0x1a	26
149	0x88	-120
150	0xef	-17
151	0xbc	-68
152	0xe0	-32
153	0xe4	-28
154	0x8a	-118
155	0x2f	47
156	0xb7	-73
157	0x5c	92
158	0xce	-50
159	0x49	73
160	0x8e	-114
161	0xf2	-14
162	0x6f	111
163	0xb9	-71
164	0xd1	-47
165	0xac	-84
166	0xb6	-74
167	0xba	-70
168	0xff	-1
169	0x70	112
170	0xd8	-40
171	0xa6	-90
172	0x68	104
173	0xdd	-35
174	0xf0	-16
175	0x32	50
176	0x01	1
177	0xcf	-49
178	0xcd	-51
179	0x0a	10
180	0x25	37
181	0xa9	-87
182	0x50	80
183	0x37	55
184	0xd2	-46
185	0x26	38
186	0xfd	-3
187	0x48	72
188	0xd5	-43
189	0x0f	15
190	0xf4	-12
191	0xb2	-78
192	0x94	-108
193	0x0c	12
194	0xde	-34
195	0xe6	-26
196	0x97	-105
197	0x21	33
198	0x41	65
199	0x50	80
200	0x04	4
201	0xb5	-75
202	0x4f	79
203	0xfc	-4
204	0x61	97
205	0x75	117
206	0x39	57
207	0xa2	-94
208	0xd7	-41
209	0xe4	-28
210	0xae	-82
211	0x62	98
212	0xcc	-52
213	0x61	97
214	0xfd	-3
215	0x47	71
216	0x87	-121
217	0x49	73
218	0x1e	30
219	0x48	72
220	0x3f	63
221	0x8c	-116
222	0xdc	-36
223	0x70	112
224	0xb8	-72
225	0xd5	-43
226	0xc2	-62
227	0xec	-20
228	0xe1	-31
229	0xfe	-2
230	0xe5	-27
231	0xf5	-11
232	0xf7	-9
233	0xe6	-26
234	0x17	23
235	0xe2	-30
236	0xf2	-14
237	0xd9	-39
238	0xea	-22
239	0x88	-120
240	0xae	-82
241	0x11	17
242	0xe7	-25
243	0x44	68
244	0xaf	-81
245	0x1c	28
246	0xf9	-7
247	0x1c	28
248	0xe8	-24
249	0x0e	14
250	0x36	54
251	0xbf	-65
252	0xf2	-14
253	0xeb	-21
254	0x94	-108
255	0x74	116

tfl.pseudo_qconst3 i1 [64, 2048] scale=0.00055793015 zero_point=0
0	0xfa	-0.0033475808
1	0x4e	0.04351855
2	0x1c	0.015622044
3	0xbc	-0.03793925
4	0xf9	-0.003905511
5	0xa3	-0.051887505
6	0xde	-0.018969625
7	0x34	0.029012367
8	0xfe	-0.0011158603
9	0xc6	-0.03235995
10	0x56	0.047981992
11	0x12	0.010042743
12	0xfd	-0.0016737904
13	0xad	-0.0463082
14	0x3d	0.034033738
15	0xc3	-0.034033738
16	0xed	-0.010600673
17	0xca	-0.030128228
18	0x0f	0.008368952
19	0xab	-0.047424063
20	0xe6	-0.014506184
21	0xad	-0.0463082
22	0xef	-0.009484813
23	0x2e	0.025664788
24	0xf8	-0.004463441
25	0x2f	0.026222717
26	0xef	-0.009484813
27	0xe7	-0.013948253
28	0xd0	-0.026780646
29	0xa5	-0.050771642
30	0x28	0.022317206
31	0x28	0.022317206
32	0xa3	-0.051887505
33	0x12	0.010042743
34	0x29	0.022875136
35	0xd6	-0.023433067
36	0xcd	-0.028454438
37	0x11	0.009484813
38	0xdd	-0.019527555
39	0xa2	-0.052445434
40	0x4c	0.042402692
41	0x02	0.0011158603
42	0xd4	-0.024548927
43	0xa3	-0.051887505
44	0xf8	-0.004463441
45	0x55	0.047424063
46	0xb3	-0.04296062
47	0xd5	-0.023990996
48	0x3d	0.034033738
49	0xb3	-0.04296062
50	0x44	0.03793925
51	0x62	0.054677155
52	0x58	0.049097855
53	0xfc	-0.0022317206
54	0xf6	-0.0055793016
55	0x19	0.013948253
56	0x0b	0.006137232
57	0xdd	-0.019527555
58	0x15	0.011716533
59	0xce	-0.027896507
60	0xc7	-0.031802017
61	0x23	0.019527555
62	0x64	0.055793013
63	0x47	0.039613042
64	0xd0	-0.026780646
65	0xeb	-0.011716533
66	0xaa	-0.047981992
67	0xf4	-0.0066951616
68	0x3c	0.03347581
69	0xd4	-0.024548927
70	0x3b	0.03291788
71	0x48	0.04017097
72	0xbd	-0.03738132
73	0xdb	-0.020643415
74	0xc9	-0.030686159
75	0x62	0.054677155
76	0xb6	-0.04128683
77	0xca	-0.030128228
78	0xef	-0.009484813
79	0xf0	-0.008926882
80	0xfc	-0.0022317206
81	0xb2	-0.04351855
82	0x06	0.0033475808
83	0xe1	-0.017295836
84	0x2a	0.023433067
85	0x2b	0.023990996
86	0x1d	0.016179975
87	0x1b	0.015064114
88	0xba	-0.03905511
89	0x1b	0.015064114
90	0x02	0.0011158603
91	0x22	0.018969625
92	0xae	-0.04575027
93	0x3a	0.03235995
94	0xee	-0.010042743
95	0xdb	-0.020643415
96	0xbb	-0.03849718
97	0xf3	-0.007253092
98	0xe0	-0.017853765
99	0x4c	0.042402692
100	0xe9	-0.012832394
101	0x46	0.03905511
102	0xe9	-0.012832394
103	0x29	0.022875136
104	0x08	0.004463441
105	0xd0	-0.026780646
106	0xe3	-0.016179975
107	0x1b	0.015064114
108	0x10	0.008926882
109	0x2c	0.024548927
110	0x35	0.029570298
111	0xcc	-0.029012367
112	0x3c	0.03347581
113	0xac	-0.046866134
114	0x9e	-0.054677155
115	0x04	0.0022317206
116	0xfa	-0.0033475808
117	0xa0	-0.053561293
118	0xe3	-0.016179975
119	0xe5	-0.015064114
120	0xdd	-0.019527555
121	0xf3	-0.007253092
122	0x0a	0.0055793016
123	0xf5	-0.006137232
124	0x05	0.0027896508
125	0xcb	-0.029570298
126	0xdf	-0.018411694
127	0x51	0.045192342
128	0x1a	0.014506184
129	0xcc	-0.029012367
130	0xbd	-0.03738132
131	0x56	0.047981992
132	0xd7	-0.022875136
133	0x17	0.012832394
134	0x33	0.028454438
135	0x00	0.0
136	0xf0	-0.008926882
137	0x2f	0.026222717
138	0xcc	-0.029012367
139	0x34	0.029012367
140	0xb1	-0.044076484
141	0xb1	-0.044076484
142	0x41	0.03626546
143	0x01	0.00055793015
144	0x12	0.010042743
145	0xdc	-0.020085486
146	0xc6	-0.03235995
147	0xb0	-0.044634413
148	0xe9	-0.012832394
149	0xac	-0.046866134
150	0xe8	-0.013390323
151	0x49	0.0407289
152	0xdc	-0.020085486
153	0x51	0.045192342
154	0x41	0.03626546
155	0x2b	0.023990996
156	0xe0	-0.017853765
157	0xb0	-0.044634413
158	0xf6	-0.0055793016
159	0x21	0.018411694
160	0xca	-0.030128228
161	0x03	0.0016737904
162	0x35	0.029570298
163	0x2f	0.026222717
164	0x2a	0.023433067
165	0x9d	-0.055235084
166	0xcb	-0.029570298
167	0xa1	-0.053003363
168	0xf5	-0.006137232
169	0xe8	-0.013390323
170	0xe7	-0.013948253
171	0x31	0.027338577
172	0xdf	-0.018411694
173	0xce	-0.027896507
174	0xcb	-0.029570298
175	0x15	0.011716533
176	0x1c	0.015622044
177	0x5c	0.051329575
178	0xae	-0.04575027
179	0xcd	-0.028454438
180	0x20	0.017853765
181	0x47	0.039613042
182	0x5a	0.050213713
183	0x0a	0.0055793016
184	0xee	-0.010042743
185	0xd9	-0.021759275
186	0xe1	-0.017295836
187	0xad	-0.0463082
188	0xca	-0.030128228
189	0xf7	-0.0050213714
190	0x48	0.04017097
191	0x41	0.03626546
192	0xa7	-0.049655784
193	0x08	0.004463441
194	0xc8	-0.031244088
195	0x48	0.04017097
196	0x42	0.03682339
197	0xb8	-0.04017097
198	0x19	0.013948253
199	0x03	0.0016737904
200	0xf8	-0.004463441
201	0x06	0.0033475808
202	0x15	0.011716533
203	0xa4	-0.051329575
204	0xfc	-0.0022317206
205	0xd2	-0.025664788
206	0x1b	0.015064114
207	0xc4	-0.03347581
208	0xca	-0.030128228
209	0xae	-0.04575027
210	0xaa	-0.047981992
211	0x4f	0.044076484
212	0x2d	0.025106857
213	0x1b	0.015064114
214	0x49	0.0407289
215	0xc3	-0.034033738
216	0xab	-0.047424063
217	0xb0	-0.044634413
218	0xf8	-0.004463441
219	0xd2	-0.025664788
220	0xfb	-0.0027896508
221	0x08	0.004463441
222	0xb6	-0.04128683
223	0xc3	-0.034033738
224	0xfd	-0.0016737904
225	0x3d	0.034033738
226	0xdf	-0.018411694
227	0xc9	-0.030686159
228	0xd7	-0.022875136
229	0xcb	-0.029570298
230	0xc5	-0.03291788
231	0xf7	-0.0050213714
232	0xc0	-0.03570753
233	0xba	-0.03905511
234	0xa1	-0.053003363
235	0xf2	-0.007811022
236	0xc3	-0.034033738
237	0xc1	-0.0351496
238	0xfa	-0.0033475808
239	0x18	0.013390323
240	0xbd	-0.03738132
241	0x34	0.029012367
242	0xe3	-0.016179975
243	0x25	0.020643415
244	0x3f	0.0351496
245	0x56	0.047981992
246	0x57	0.04853992
247	0xb0	-0.044634413
248	0x22	0.018969625
249	0xc2	-0.03459167
250	0xde	-0.018969625
251	0xd9	-0.021759275
252	0x32	0.027896507
253	0x4f	0.044076484
254	0x9e	-0.054677155
255	0xea	-0.012274464
